notebooks/lstm_model.pth (torch, 335529 bytes, 18 tensors)

lstm.weight_ih_l0 f4 [200, 3]
0.09006321 0.19277926 0.13708408 -0.017006593 0.07415224 -0.004952012 -0.047527 0.023991046
0.02512976 0.057971872 0.11196624 0.08522267 0.08467582 -0.03618617 0.080202274 0.11676634
-0.05469081 0.06977316 0.21004564 0.11693268 0.12563665 -0.10320453 -0.03070629 -0.039620515
0.053592652 0.13484035 -0.021235377 0.030493625 0.026054556 0.08776488 0.23426975 0.1633615
-0.042194657 0.2270563 -0.12322595 -0.07990444 -0.044759084 -0.06072607 0.037361592 0.21811077
-0.12679029 -0.025824472 0.09478661 -0.08911546 -0.05803122 -0.12466205 0.022053095 0.13633932
0.19696105 0.0027073626 -0.03418496 0.08231145 0.03233588 0.08112366 0.052907266 0.08647254
-0.05995876 -0.057056077 0.12296041 0.0023099023 0.13872547 -0.004375626 0.1687767 0.10856165
0.00047883613 -0.11197603 0.28963807 -0.03079903 0.11227008 -0.09828317 0.06360873 0.06098369
0.1530794 -0.07665225 -0.094756655 -0.043296073 0.21501547 -0.030526131 0.23801284 0.14324099
0.18271367 -0.085190535 0.09262322 0.0633844 0.010903765 -0.07925292 -0.08377006 0.14305945
-0.07216808 0.08373452 0.058265105 -0.093189225 0.07213993 0.27593726 -0.069088854 0.004266312
0.117851496 -0.14269161 0.05899779 0.20852858 0.0045265206 -0.077896126 -0.06649189 0.14633228
0.12657289 0.093590565 0.0027064476 0.060797174 0.015465128 0.0898612 0.16609256 -0.050226066
-0.12429137 0.09034434 0.22799669 0.12354806 -0.063655525 0.23543477 0.106276 0.09470675
0.0057387757 0.08104774 0.14416263 0.26269257 -0.064988755 -0.075765066 -0.046771858 -0.055818968
-0.060487285 -0.04572905 0.030340988 -0.096688665 0.1751956 0.07312253 -0.008619619 -0.0010032796
-0.030246915 0.13060495 0.21066032 0.07723607 -0.048942264 0.1853001 -0.06684119 -0.005299976
0.08463384 0.103809796 -0.09048598 0.021016017 0.14660907 0.008118828 0.21885183 0.13616629
0.049020678 -0.009005342 -0.11453722 -0.10120502 0.107801974 0.004396733 -0.075121455 -0.0041837282
-0.064071886 -0.0011857054 0.16709144 -0.0026409754 0.15496771 -0.0075782314 0.13335945 -0.05164844
0.059875384 -0.13029146 0.1515051 -0.03950987 -0.08058941 0.0962514 -0.06666911 -0.07819786
0.15208894 -0.13134184 -0.020474426 0.014863789 0.06976582 0.06881671 -0.06186358 0.2073108
0.010863542 -0.015200987 -0.09892564 0.03372063 -0.04974565 0.11653986 -0.046733018 -0.09912397
0.0964965 0.011205039 0.08439607 0.10305446 -0.042403184 0.018705547 0.15689944 0.12442214
-0.14677322 0.01087341 -0.1090346 -0.017286384 0.07509971 -0.07672619 -0.07938894 0.026779624
0.066246934 0.046216924 0.08684116 -0.00626056 0.050323956 0.038481526 0.039369974 -0.056096986
0.020853594 -0.018026596 -0.09656239 -0.13850214 0.085257106 -0.18134856 0.052636325 -0.06876843
0.100581065 -0.042005558 0.166916 -0.007906755 0.06248886 0.006102055 0.25246194 -0.14132568
0.028192166 0.07024624 0.16089255 0.033350494 -0.018782478 0.1623317 0.073430695 -0.031842597
0.042489305 -0.0910145 0.025502902 0.029627755 0.121932775 0.032571502 0.1638336 -0.041940283
-0.08486344 0.057015866 0.03005843 0.071134135 0.080521666 0.101394154 -0.004291911 0.11373382
00000000: 0f73 b83d ed67 453e c55f 0c3e 6951 8bbc
00000010: 21dd 973d 7d44 a2bb acab 42bd df88 c43c
00000020: eddc cd3c ea73 6d3d 8e4e e53d 3989 ae3d
00000030: 846a ad3d f337 14bd 1741 a43d 3123 ef3d
00000040: 7903 60bd 3be5 8e3d 3416 573e 677a ef3d
00000050: e5a6 003e e65c d3bd c28b fbbc 1f49 22bd
00000060: f883 5b3d 9713 0a3e d0f5 adbc c4cd f93c
00000070: 5d70 d53c 13be b33d 69e4 6f3e 3d48 273e
00000080: 4ed4 2cbd 7281 683e e35d fcbd f0a4 a3bd
00000090: 4d55 37bd e6bb 78bd 7808 193d 6e58 5f3e
000000a0: 50d5 01be d88d d3bc 7b1f c23d 2b82 b6bd
000000b0: 25b2 6dbd d14e ffbd b1a8 b43c 899c 0b3e
000000c0: 28b0 493e 026e 313b 8705 0cbd e892 a83d
000000d0: a172 043d 2924 a63d 4ab5 583d 8418 b13d
000000e0: 5197 75bd a2b3 69bd abd2 fb3d bb61 173b
000000f0: 0d0e 0e3e 6961 8fbb cdd3 2c3e 9255 de3d
00000100: 4c0c fb39 b053 e5bd 714b 943e 3f4e fcbc
00000110: dbed e53d b048 c9bd 4b45 823d 09ca 793d
00000120: d9c0 1c3e dbfb 9cbd c70f c2bd 3957 31bd
00000130: 042d 5c3e f011 fabc a3b9 733e c4ad 123e
00000140: 4b19 3b3e 6078 aebd 3eb1 bd3d aecf 813d
00000150: b5a5 323c 5b4f a2bd a38f abbd 2d7e 123e
00000160: dccc 93bd 017d ab3d 64a7 6e3d fed9 bebd
00000170: 1abe 933d a647 8d3e 757e 8dbd 6bcc 8b3b
00000180: 205c f13d c01d 12be aba7 713d 8488 553e
00000190: 3553 943b 0188 9fbd e62c 88bd 21d8 153e
000001a0: 539c 013e 69ac bf3d a85e 313b 7506 793d
000001b0: 7361 7d3c 2609 b83d 2b14 2a3e d9b9 4dbd
000001c0: 798c febd 7406 b93d f777 693e c406 fd3d
000001d0: d45d 82bd d015 713e 3ba7 d93d 9df5 c13d
000001e0: 570c bc3b 5cfc a53d 5e9f 133e a47f 863e
000001f0: d318 85bd b72a 9bbd d993 3fbd 6ea2 64bd
00000200: 84c1 77bd 624e 3bbd aa8d f83c b504 c6bd
00000210: 7a66 333e 44c1 953d 4d39 0dbc 7a80 83ba
00000220: 61c8 f7bc 4ebd 053e 57b7 573e f22d 9e3d
00000230: af77 48bd 4fbf 3d3e 09e4 88bd 6cab adbb
00000240: 8254 ad3d 3b9a d43d b750 b9bd c829 ac3c
00000250: b020 163e d504 053c b21a 603e 2d6f 0b3e
00000260: e8c9 483d 248b 13bc 7d92 eabd 9444 cfbd
00000270: 48c7 dc3d 7812 903b 47d9 99bd a817 89bb
00000280: 1f38 83bd ac69 9bba 051a 2b3e 3714 2dbb
00000290: dbaf 1e3e d052 f8bb 618f 083e 518d 53bd
000002a0: e43f 753d 206b 05be 2724 1b3e 1ad5 21bd
000002b0: 100c a5bd 741f c53d d089 88bd 3326 a0bd
000002c0: 34bd 1b3e 7a7e 06be fcb9 a7bc 4087 733c
000002d0: 62e1 8e3d c6ef 8c3d aa64 7dbd 4849 543e
000002e0: fffc 313c 900d 79bc 8799 cabd a51e 0a3d
000002f0: 18c2 4bbd 73ac ee3d 1f6b 3fbd 8201 cbbd
00000300: f59f c53d 5795 373c d9d7 ac3d 370e d33d
00000310: f6ae 2dbd 603c 993c 3faa 203e 09d1 fe3d
00000320: b84b 16be 6326 323c 884d dfbd 2d9c 8dbc
00000330: e0cd 993d 9f22 9dbd ab96 a2bd f160 db3c
00000340: 79ac 873d f54d 3d3d c7d9 b13d 6225 cdbb
00000350: 7e20 4e3d ce9e 1d3d 6942 213d f4c5 65bd
00000360: 28d5 aa3c 83ac 93bc 81c2 c5bd 81d3 0dbe
00000370: 479b ae3d 70b3 39be 3099 573d 76d6 8cbd
00000380: 72fd cd3d 050e 2cbd 07ec 2a3e 568b 01bc
00000390: 52f4 7f3d bff3 c73b b142 813e aeb7 10be
000003a0: 42f3 e63c 43dd 8f3d 04c1 243e 879a 083d
000003b0: b6dd 99bc 483a 263e d562 963d 626d 02bd
000003c0: 4409 2e3d cf65 babd 76eb d03c e8b5 f23c
000003d0: e4b7 f93d b269 053d ffc3 273e 93c9 2bbd
000003e0: e2cc adbd 7889 693d 193d f63c c6ae 913d
000003f0: 8be8 a43d bda7 cf3d 29a3 8cbb 47ed e83d

lstm.weight_hh_l0 f4 [200, 50]
0.026316252 -0.18795569 0.02447219 -0.02532461 -0.0814692 -0.061623752 -0.06893452 0.3059196
0.07260546 -0.006518572 -0.1743182 -0.14940833 -0.16465986 -0.00871211 -0.046367854 0.0715187
0.20643042 -0.23566692 -0.05344239 -0.045465283 -0.015627462 -0.124447435 -0.20025863 0.025789892
-0.18340963 -0.2024003 0.06647424 -0.10584718 0.129522 -0.14450614 -0.21838301 -0.02396
0.17221516 0.14814825 0.05350415 0.014482123 -0.16422322 -0.0804173 0.05774343 -0.25054368
-0.118054435 -0.23252013 0.20521273 0.12662646 -0.2023161 -0.08939028 0.16494308 0.058230683
0.08304003 -0.09821714 -0.1259244 -0.0059398855 0.13023801 0.040355504 -0.027057784 0.07829474
0.08311333 0.09774496 -0.013978974 0.06972771 0.032888677 0.057489693 -0.2095912 -0.17114908
0.18085457 0.21547657 0.0018625812 -0.22957832 0.06717944 0.08239011 0.075550586 -0.13616021
-0.09490035 -0.17673454 -0.17915139 -0.15170577 -0.09347017 -0.101199396 -0.0013604241 -0.19757362
-0.1969359 -0.1631362 0.17179011 -0.020939559 -0.02932777 -0.15684558 0.033576604 0.04473899
0.1816632 -0.24703787 0.044685155 0.01199692 0.13764757 -0.052952148 -0.14694566 -0.1486737
0.22107588 0.12317899 0.1145641 -0.17586096 -0.16620561 0.060112324 0.14455584 0.021551797
0.016125647 -0.11469978 -0.03440841 -0.039197218 -0.04494653 -0.036238655 0.0581612 0.028633073
-0.14215162 0.026011225 0.09883582 -0.065990426 0.13296811 -0.17105564 -0.049309477 -0.091938525
0.06796412 0.062233962 0.039470483 0.037322063 0.06238538 -0.10813791 0.052516326 -0.11529063
0.09921426 -0.14336175 0.08653674 0.027291847 0.12532744 -0.10015896 -0.0319382 0.03470917
0.04242731 0.025524853 0.13037315 -0.14508834 0.14628297 0.044915218 -0.036230337 0.06387064
-0.11183578 0.051354416 0.024905562 -0.06257964 0.051997792 0.017233102 -0.068169944 -0.0010241156
-0.11071481 0.11229464 0.055106305 -0.149628 -0.076525085 0.15956962 0.07525915 0.101760745
0.012953748 -0.08454162 0.028080564 -0.069437765 -0.058248427 0.07134944 -0.022922004 0.061765406
-0.0073523866 0.06903009 0.10494471 0.07754813 -0.14769904 -0.13409582 -0.057081338 0.03440259
0.01058364 0.0061889417 -0.0049474523 0.081034794 -0.13072732 0.09730376 -0.0856067 0.1360055
0.10460001 0.0749411 0.06948442 -0.06721322 0.08740963 0.047093306 0.19756667 -0.15710703
-0.17483637 0.0026072375 -0.13534662 0.106592946 0.0061641727 0.19606659 -0.047554035 -0.10365927
-0.082163885 -0.073290765 -0.038073163 0.035116047 0.04487688 -0.1337119 0.13951021 0.0855157
0.0016902236 -0.044458326 0.031064441 0.004921653 -0.09494916 0.043255012 -0.070528984 -0.030504273
0.04349248 -0.20168686 0.054702166 0.15507291 0.023370508 -0.07871877 0.06461738 -0.045000244
-0.085236676 0.05585682 0.13891362 0.2313949 0.041503057 0.025919395 -0.020648386 -0.009470933
-0.041975055 0.10181706 -0.19222538 0.0048009013 -0.09423976 -0.05165372 0.09031163 0.004546198
-0.105875365 0.035291832 -0.08824149 0.108608514 0.0019314805 -0.14800954 0.1747725 -0.010070572
-0.009619645 -0.04892631 -0.0810015 0.03420823 -0.045715336 -0.09792956 -0.11798956 0.028090596
00000000: 2e95 d73c 7577 40be e779 c83c 8e75 cfbc
00000010: 53d9 a6bd 3069 7cbd 8b2d 8dbd 7ea1 9c3e
00000020: 2cb2 943d bf99 d5bb 7880 32be 7ffe 18be
00000030: 989c 28be 3dbd 0ebc 38ec 3dbd 6578 923d
00000040: 7f62 533e ab52 71be 68e6 5abd ce39 3abd
00000050: 2a05 80bc 4cde febd 9910 4dbe 5345 d33c
00000060: bccf 3bbe 0642 4fbe a523 883d 68c6 d8bd
00000070: 6aa1 043e 6bf9 13be cc9f 5fbe c347 c4bc
00000080: 2c59 303e 2db4 173e 2b27 5b3d 6d46 6d3c
00000090: 222a 28be d3b1 a4bd 6084 6c3d 4347 80be
000000a0: 86c6 f1bd c219 6ebe 4923 523e 5eaa 013e
000000b0: f42b 4fbe 4012 b7bd d7e6 283e 4c83 6e3d
000000c0: e410 aa3d 1126 c9bd 53f2 00be 5fa3 c2bb
000000d0: 1d5d 053e d04b 253d 49a8 ddbc fe58 a03d
000000e0: 5237 aa3d 822e c83d 1108 65bc 67cd 8e3d
000000f0: 47b6 063d 507a 6b3d 139f 56be b441 2fbe
00000100: f131 393e e4a5 5c3e db21 f43a 9416 6bbe
00000110: 6095 893d 25bc a83d 44ba 9a3d 956d 0bbe
00000120: 1d5b c2bd e6f9 34be 7673 37be c258 1bbe
00000130: 4a6d bfbd a141 cfbd 4250 b2ba bd50 4abe
00000140: 91a9 49be 2d0d 27be bfe9 2f3e 7089 abbc
00000150: cb40 f0bc 219c 20be 9f87 093d 3b40 373d
00000160: eb05 3a3e 7ff7 7cbe c807 373d bb8e 443c
00000170: 7cf3 0c3e 5ae4 58bd ec78 16be eb3d 18be
00000180: b761 623e 4445 fc3d 95a0 ea3d e514 34be
00000190: ce31 2abe 5738 763d 7206 143e 658d b03c
000001a0: ef19 843c b8e7 eabd d5ef 0cbd 438d 20bd
000001b0: da19 38bd fc6e 14bd 703a 6e3d e88f ea3c
000001c0: 3290 11be 7e15 d53c 6f6a ca3d fd25 87bd
000001d0: cb28 083e 3629 2fbe bcf8 49bd 444a bcbd
000001e0: c630 8b3d 0ae9 7e3d cdab 213d 05df 183d
000001f0: d087 7f3d 6977 ddbd 5c1b 573d 7e1d ecbd
00000200: d930 cb3d 6ccd 12be 2d3a b13d 2793 df3c
00000210: d655 003e 2420 cdbd a1d1 02bd 342b 0e3d
00000220: 42c8 2d3d 7f19 d13c 8a80 053e 0a92 14be
00000230: 34cb 153e 05f9 373d 4366 14bd 9cce 823d
00000240: 280a e5bd 0259 523d c006 cc3c c129 80bd
00000250: a3fb 543d 6f2c 8d3c af9c 8bbd 9e3b 86ba
00000260: 72be e2bd bbfa e53d 26b7 613d 1538 19be
00000270: 2fb9 9cbd 3866 233e 7821 9a3d f067 d03d
00000280: f53b 543c 2824 adbd 3609 e63c 6335 8ebd
00000290: e795 6ebd a81f 923d edc6 bbbc b9fd 7c3d
000002a0: 4aec f0bb a65f 8d3d 41ed d63d 8ed1 9e3d
000002b0: 6b3e 17be 6a50 09be 1fce 69bd bbe9 0c3d
000002c0: 0167 2d3c 9bcc ca3b 3d1e a2bb 92f5 a53d
000002d0: 62dd 05be 3247 c73d 9152 afbd 0745 0b3e
000002e0: 8838 d63d b87a 993d d94d 8e3d 16a7 89bd
000002f0: d203 b33d e9e4 403d eb4e 4a3e aae0 20be
00000300: 4e08 33be 30de 2a3b 4e98 0abe 674d da3d
00000310: d4fc c93b aec5 483e 05c8 42bd 504b d4bd
00000320: 8a45 a8bd 7819 96bd 9bf2 1bbd d8d5 0f3d
00000330: d2d0 373d c6eb 08be c4db 0e3e db22 af3d
00000340: 7e8a dd3a ef19 36bd db7a fe3c d145 a13b
00000350: b574 c2bd 2b2c 313d 8071 90bd 19e4 f9bc
00000360: 2c25 323d 0087 4ebe 610f 603d 6fcb 1e3e
00000370: 8273 bf3c 4e37 a1bd 1e56 843d 2d52 38bd
00000380: 9190 aebd 1fca 643d 5f3f 0e3e c9f2 6c3e
00000390: 1cff 293d e954 d43c ce26 a9bc f92b 1bbc
000003a0: 09ee 2bbd 7685 d03d bbd6 44be e150 9d3b
000003b0: c600 c1bd da92 53bd 4ef5 b83d 46f8 943b
000003c0: 2fd5 d8bd 2b8e 103d f4b7 b4bd 246e de3d
000003d0: bb29 fd3a d08f 17be 90f7 323e 0aff 24bc
000003e0: b79b 1dbc f466 48bd 1de4 a5bd ee1d 0c3d
000003f0: 0140 3bbd 4b8f c8bd 83a4 f1bd 401e e63c

lstm.bias_ih_l0 f4 [200]
0.06576379 0.14524814 0.081576586 -0.025894748 -0.04508765 0.11854041 -0.046152152 0.11260723
0.17906529 0.08170525 -0.037192408 -0.059627242 -0.0533597 0.12753525 -0.05200913 0.14657024
0.059458014 0.05499667 -0.1071831 0.11043258 0.14872377 -0.11938441 0.046099935 0.13780089
0.06432711 0.09573973 0.14121687 0.08923296 0.15398918 -0.039247807 0.04234971 -0.045710765
0.04144144 -0.103404924 0.013456127 -0.055455036 0.07790057 -0.030874997 0.10120483 0.108230926
0.15596236 0.10489153 0.09963825 0.16163947 0.056501556 0.010067474 0.010046918 0.12531514
0.10914553 0.0020367282 0.0070531354 0.05177562 0.0041606165 0.025291452 0.13672918 0.005457669
-0.09771332 -0.014301577 0.10393015 -0.07085615 0.08614006 0.12849276 -0.018475076 0.10662946
0.032939915 -0.028867494 -0.055769335 -0.09884524 0.09631102 -0.12805071 0.17696796 -0.15486336
0.06577814 0.076705165 0.08993859 -0.07363788 0.15457052 -0.08007804 0.059397947 -0.10338731
0.04766228 0.0058236755 -0.11541603 -0.13068134 -0.016747203 0.10175073 -0.021991389 -0.09600638
0.09723803 -0.0350333 0.15224004 0.13861722 0.16234462 -0.018072996 0.0564685 0.11777349
0.014867087 -0.07319156 -0.102124594 -0.11761698 -0.048978925 -0.10201149 0.108139396 -0.088979885
-0.108557634 0.018268578 -0.09575364 0.068090945 -0.01181947 -0.11098263 0.07199463 0.08333496
-0.034879513 -0.00421878 0.054421633 0.11665339 -0.044788707 0.046391636 0.10225422 0.10134799
0.0019254938 0.020405822 -0.046758145 -0.11564064 -0.067072876 0.02066887 0.019275289 0.1538623
-0.050234728 -0.10956981 -0.060030434 0.09737164 0.037159655 -0.05775286 -0.1565077 -0.012826035
-0.11142413 0.049830742 -0.038377464 -0.07798215 -0.021384295 -0.022230852 0.10992634 0.109723225
0.03640645 -0.118492484 -0.04136761 -0.013156576 0.06867791 -0.034059715 0.12929206 -0.020580694
-0.024557933 0.099925876 0.0067078397 0.05565544 -0.0019826682 0.07144218 0.032360695 0.10590805
0.13645165 -0.04835693 0.06846314 -0.06886968 0.06943258 0.12766904 0.2005494 -0.050874475
0.03346198 -0.09826966 -0.033369668 -0.13369443 -0.035978846 -0.050769825 -0.11470977 0.060307566
0.29352075 0.03613006 0.120187834 -0.1306816 0.16508643 -0.06632042 -0.10367325 -0.12592377
-0.08312037 -0.1498884 -0.09351074 0.019868946 -0.09482674 0.13846543 0.2003593 -0.063295536
0.1978692 0.05928794 -0.043513432 -0.117725424 0.017348848 0.16541518 0.13782255 -0.04523822
00000000: 2aaf 863d eebb 143e a011 a73d 3921 d4bc
00000010: d4ad 38bd 51c5 f23d 0a0a 3dbd 9f9e e63d
00000020: e45c 373e 1555 a73d 1157 18bd b23b 74bd
00000030: b38f 5abd 9a98 023e 8707 55bd 8216 163e
00000040: 3f8a 733d 3044 613d d082 dbbd 7a2a e23d
00000050: 0b4b 183e d07f f4bd 49d3 3c3d ad1b 0d3e
00000060: efbd 833d 3113 c43d 289b 103e c5bf b63d
00000070: 57af 1d3e 4fc2 20bd e476 2d3d 363b 3bbd
00000080: 80be 293d f6c5 d3bd 1677 5c3c d224 63bd
00000090: 568a 9f3d 90ed fcbc 7a44 cf3d 2da8 dd3d
000000a0: 99b4 1f3e 5fd1 d63d 240f cc3d d184 253e
000000b0: 2d6e 673d 0cf2 243c d49b 243c 9d52 003e
000000c0: b187 df3d a17a 053b fd1d e73b ac12 543d
000000d0: c855 883b 0530 cf3c bc02 0c3e 3fd6 b23b
000000e0: ec1d c8bd 2951 6abc 55d9 d43d 071d 91bd
000000f0: 336a b03d 9b93 033e 0b59 97bc 8c60 da3d
00000100: 01ec 063d 867b ecbc 636e 64bd 606f cabd
00000110: b63e c53d ba1f 03be 1737 353e 8094 1ebe
00000120: b1b6 863d 9917 9d3d b931 b83d 75cf 96bd
00000130: bc47 1e3e f5ff a3bd 434b 733d babc d3bd
00000140: 8639 433d 88d4 be3b 3d5f ecbd 54d1 05be
00000150: 6e31 89bc b062 d03d 4927 b4bc fe9e c4bd
00000160: bb24 c73d 147f 0fbd d0e4 1b3e acf1 0d3e
00000170: ab3d 263e d20d 94bc 844b 673d 3a33 f13d
00000180: 1595 733c 75e5 95bd b326 d1bd 2ce1 f0bd
00000190: 209e 48bd 66eb d0bd 3078 dd3d 163b b6bd
000001a0: 7753 debd fca7 953c 7c1a c4bd 4473 8b3d
000001b0: 73a6 41bc dc4a e3bd ec71 933d 85ab aa3d
000001c0: d2dd 0ebd b13d 8abb 38e9 5e3d f9e7 ee3d
000001d0: 5d74 37bd 2805 3e3d a96a d13d 898f cf3d
000001e0: da60 fc3a 1c2a a73c 7885 3fbd 00d5 ecbd
000001f0: 815d 89bd c351 a93c 36e7 9d3c 148e 1d3e
00000200: eec2 4dbd 2366 e0bd 79e2 75bd c86a c73d
00000210: b934 183d 438e 6cbd 8e43 20be 4a24 52bc
00000220: 5632 e4bd 521b 4c3d b031 1dbd 1bb5 9fbd
00000230: 1e2e afbc 7a1d b6bc 1021 e13d 92b6 e03d
00000240: ee1e 153d 30ac f2bd 1571 29bd ae8e 57bc
00000250: 01a7 8c3d 3382 0bbd 2365 043e d898 a8bc
00000260: b82d c9bc f0a5 cc3d 70cd db3b f5f6 633d
00000270: a7ef 01bb 4750 923d a68c 043d 52e6 d83d
00000280: fbb9 0b3e eb11 46bd 6736 8c3d 8c0b 8dbd
00000290: ab32 8e3d acbb 023e d25c 4d3e c161 50bd
000002a0: 6e0f 093d 9a41 c9bd a2ae 08bd 31e7 08be
000002b0: 8e5e 13bd 05f4 4fbd f5ec eabd 1105 773d
000002c0: 5a48 963e 1dfd 133d 0a25 f63d 66d1 05be
000002d0: 6b0c 293e 00d3 87bd a452 d4bd 29f2 00be
000002e0: 033b aabd 587c 19be 8f82 bfbd 33c4 a23c
000002f0: 8634 c2bd e2c9 0d3e fd2a 4d3e 17a1 81bd
00000300: 399e 4a3e e9d7 723d 243b 32bd 071a f1bd
00000310: 2c1f 8e3c 9962 293e 5b21 0d3e b64b 39bd

lstm.bias_hh_l0 f4 [200]
0.02799111 0.09868463 0.1357029 -0.022744918 0.1878815 0.04430818 -0.09148532 -0.018159572
0.17174198 0.122353084 0.12355836 -0.011382592 0.06529369 -0.07332417 -0.01516107 0.0075429594
-0.03071968 -0.005065344 0.13639218 -0.11218641 0.16710699 -0.119300306 -0.031110154 -0.07990861
0.09591446 0.123720445 0.21985042 0.052469805 0.063573316 0.057339873 0.05553842 0.0834537
-0.042823788 -0.06288418 0.08984626 -0.08302122 0.15204798 -0.049659394 -0.096088335 -0.04415722
0.077873275 0.07675054 0.19589427 0.0015816888 0.03498479 0.11892588 0.13222566 -0.011333958
0.091388054 0.0033329725 0.16611318 0.12378756 -0.045277733 -0.10408552 0.043011844 0.07880565
0.054927915 0.14183536 -0.09264447 -0.059974387 0.077170506 0.15007167 0.058952495 0.10435085
-0.11429609 -0.034802746 0.074662596 -0.09796753 -0.10843291 -0.13330942 -0.020733347 0.075495906
0.13052137 -0.07298712 0.11182349 0.081211545 0.25040972 0.015251875 0.05876907 0.12692207
-0.09961714 0.010879443 -0.07073674 -0.11158424 0.11242875 -0.10214753 -0.12871608 -0.1044245
-0.048434835 -0.07325619 -0.013661001 0.06670186 -0.03202072 0.052361026 0.08226952 -0.08075229
0.09676501 0.16231869 0.09837262 -0.051894333 0.059794217 0.10487731 0.055573683 -0.07300113
0.054801483 0.11426092 0.07239194 0.050510712 -0.071248055 0.11311548 0.01619636 -0.09056142
-0.08898201 -0.0838017 0.05447224 0.11567316 -0.05873083 -0.08371954 -0.09685327 0.024854174
-0.11788468 -0.10403621 0.029679315 -0.02772128 -0.094041854 -0.04319683 0.056899942 -0.09541447
0.103459 -0.010944198 -0.015587448 -0.09024665 0.049931422 -0.0067887967 -0.1356563 -0.09742952
-0.092610694 0.093007416 0.043696783 0.021358741 0.021061717 -0.046181932 0.06795503 -0.13140298
0.024320219 -0.09595956 0.026896048 -0.03819739 0.017922811 -0.088051654 0.03948907 0.068825744
0.15565512 0.04560292 0.10841499 0.085872926 -0.03279114 0.041105926 0.10800688 0.16028467
0.015877018 0.1375808 0.12798968 0.11486953 -0.1372398 0.11124507 0.08517514 0.17287742
-0.046082206 -0.1241549 -0.032668162 -0.10736259 -0.059265908 0.12915806 -0.085110836 -0.033845033
0.37269616 0.10019336 0.057092164 0.052745122 -0.07220494 0.03322797 -0.00078427524 -0.010430814
0.10632552 -0.017332813 0.06908588 0.011753803 0.031800844 0.014208652 0.037249807 0.14834219
0.19602627 -0.08020779 0.10878545 -0.095086895 0.05838584 -0.045225903 0.01731597 0.004203352
00000000: 9d4d e53c 2b1b ca3d b3f5 0a3e 8d53 babc
00000010: 0264 403e 7f7c 353d a85c bbbd 62c3 94bc
00000020: 21dd 2f3e 4194 fa3d 2a0c fd3d 0d7e 3abc
00000030: b3b8 853d fc2a 96bd 2366 78bc ee2a f73b
00000040: d7a7 fbbc 2ffb a5bb 64aa 0b3e fdc1 e5bd
00000050: 181e 2b3e b853 f4bd b9da febc 20a7 a3bd
00000060: cd6e c43d 2561 fd3d 7820 613e 94ea 563d
00000070: ba32 823d 37dd 6a3d 417c 633d c6e9 aa3d
00000080: ff67 2fbd 6cc9 80bd 5101 b83d 0807 aabd
00000090: 77b2 1b3e a667 4bbd f6c9 c4bd 33de 34bd
000000a0: 067c 9f3d 632f 9d3d 8298 483e ab50 cf3a
000000b0: 364c 0f3d 698f f33d 2a66 073e 11b2 39bc
000000c0: a929 bb3d 006e 5a3b 9319 2a3e 5584 fd3d
000000d0: 2575 39bd ca2a d5bd 302d 303d db64 a13d
000000e0: 18fc 603d 4a3d 113e 62bc bdbd b4a7 75bd
000000f0: 920b 9e3d 63ac 193e 2c78 713d e6b5 d53d
00000100: 1214 eabd 538d 0ebd b4e8 983d 33a3 c8bd
00000110: 1312 debd 4482 08be fbd8 a9bc 999d 9a3d
00000120: 65a7 053e 457a 95bd b703 e53d 3d52 a63d
00000130: b435 803e 00e3 793c d6b7 703d dcf7 013e
00000140: 1204 ccbd b13f 323c 6dde 90bd 4786 e4bd
00000150: 0b41 e63d b932 d1bd 26ce 03be 83dc d5bd
00000160: 9b63 46bd 5707 96bd 64d2 5fbc fc9a 883d
00000170: 2928 03bd 8478 563d ec7c a83d 7561 a5bd
00000180: bc2c c63d df36 263e 9677 c93d 278f 54bd
00000190: c8ea 743d eac9 d63d 3ba1 633d 9e81 95bd
000001a0: 8577 603d a101 ea3d 3a42 943d 52e4 4e3d
000001b0: 80ea 91bd 17a9 e73d 3bae 843c 4478 b9bd
000001c0: 333c b6bd 3aa0 abbd 491e 5f3d 0de6 ec3d
000001d0: bd8f 70bd 2675 abbd 025b c6bd fb9a cb3c
000001e0: 866d f1bd f010 d5bd 0922 f33c bd17 e3bc
000001f0: 0499 c0bd 29ef 30bd ea0f 693d a968 c3bd
00000200: 50e2 d33d 4b4f 33bc 7f62 7fbc 3cd3 b8bd
00000210: e484 4c3d 8e74 debb 7ce9 0abe 2189 c7bd
00000220: adaa bdbd ac7a be3d 66fb 323d 87f8 ae3c
00000230: 9f89 ac3c 4429 3dbd 022c 8b3d 818e 06be
00000240: 323b c73c 7286 c4bd 1a55 dc3c de74 1cbd
00000250: dcd2 923c 6d54 b4bd 4bbf 213d 83f4 8c3d
00000260: 0e64 1f3e 21ca 3a3d ae08 de3d 25de af3d
00000270: 0150 06bd b05e 283d b632 dd3d aa21 243e
00000280: 8510 823c fbe1 0c3e ba0f 033e b740 eb3d
00000290: 9788 0cbe 75d4 e33d 4e70 ae3d c706 313e
000002a0: b2c0 3cbd ed44 febd 0dcf 05bd ebe0 dbbd
000002b0: cfc0 72bd 0342 043e 974e aebd 17a1 0abd
000002c0: 08d2 be3e 2d32 cd3d 79d9 693d 450b 583d
000002d0: 2fe0 93bd 0d1a 083d d297 4dba 01e6 2abc
000002e0: 32c1 d93d 8bfd 8dbc e67c 8d3d 0693 403c
000002f0: 9a41 023d 68cb 683c 4193 183d 04e7 173e
00000300: 1cbb 483e fb43 a4bd e8ca de3d ebbc c2bd
00000310: fe25 6f3d cc3e 39bd 39da 8d3c 46bc 893b

lstm.weight_ih_l0_reverse f4 [200, 3]
-0.12707724 0.113376416 0.041207433 0.20907699 0.008763511 0.16800733 0.24432656 0.07372146
0.08414052 0.07239983 0.03865002 -0.03836139 -0.07996262 0.00037451804 -0.054237936 0.1807512
0.11969776 0.008676969 -0.009991322 -0.030496648 0.032087248 0.17055327 0.18765295 0.18275729
0.030924886 -0.076254345 0.007857666 0.101408176 -0.07048586 0.13521233 0.00879258 0.013050528
0.11629239 0.036985196 0.09265659 0.06225604 -0.104948714 -0.052872058 0.016794499 0.16767536
0.124662235 0.1652237 -0.10966486 0.074595444 0.09869972 0.011895806 0.059313543 0.18197039
0.045463517 0.028128508 -0.050016865 0.16038169 0.05970225 0.18628205 0.1511625 0.04323472
0.076585904 0.18416417 0.09352958 0.18326657 0.021430373 0.107448004 0.06615422 -0.014780687
0.13407226 0.04852515 -0.044478983 0.009164318 0.05064757 0.16441028 0.15402283 0.037686754
-0.020490028 0.057464007 -0.03669866 0.09234315 0.09626226 0.26116753 0.11195352 0.24900392
0.18172958 0.03161731 0.002511214 0.21402736 -0.06758256 0.10748164 0.15369207 -0.002842286
0.016888956 0.15503201 0.082282476 0.042284355 0.2080681 0.053707834 -0.07472198 -0.0782356
-0.06934896 0.10413818 -0.028961487 0.053717453 0.07896936 0.07693818 -0.039358933 -0.0667582
-0.071559004 0.017392756 0.20886266 0.09368074 0.124997616 0.010183738 0.24299905 0.0077069667
0.04244854 0.14635655 -0.0008491771 0.08514749 0.10127365 0.0678716 0.20350178 0.1748847
-0.060772117 -0.12993763 0.17762569 0.07822723 0.08924526 0.15270075 -0.069596715 -0.05587129
0.001816574 -0.02561012 -0.14378792 0.05831657 0.16338314 -0.024279134 0.054965176 -0.11407717
-0.09163494 0.011155196 0.15015177 -0.012702034 -0.113423504 0.054504953 -0.13396189 -0.02144246
0.07334206 -0.12182188 0.027448814 0.10419548 0.057494935 0.026632255 -0.054578446 0.19298378
0.19117828 0.15045214 0.066326156 -0.0064542186 0.10739173 0.0507741 0.15995799 -0.04384449
-0.1190585 0.059075996 -0.068825796 -0.1109452 0.040582016 -0.04324024 -0.12609634 0.06917977
-0.024223339 -0.14514868 0.08499745 0.030067414 -0.07135917 0.058781084 0.06675922 0.07375714
-0.07456746 0.16314581 -0.15237843 -0.10018889 0.24280775 0.025664657 0.1250607 -0.039380267
-0.036476 0.13808325 0.06890474 -0.089622535 0.123622365 -0.051812183 0.04783281 0.1191482
-0.12490924 0.15453124 0.091826364 0.09375957 -0.0155552225 0.022611748 0.1573715 -0.010068674
0.09735128 0.011056626 -0.14131583 -0.058695935 0.034485016 -0.026402308 0.26798186 0.1176441
0.09201312 0.1719804 0.15931632 -0.0886533 0.19159651 0.028903656 0.15159537 0.06390366
-0.12721111 0.0242915 -0.097726665 0.04690743 0.04913182 0.18841188 -0.017656922 0.06650497
0.18050252 0.23040847 0.18378887 0.26997578 0.058786146 0.2320623 0.008237257 0.03897668
0.013522844 0.20696646 0.05125031 0.06589356 -0.018450426 0.14859936 -0.09464458 0.05741211
0.08464972 -0.003663864 0.064987786 0.12998928 0.038888097 0.029525436 -0.055585187 0.005728318
-0.07180664 0.20018797 -0.020465724 0.11405716 0.08964204 -0.09918184 0.010815191 0.10855518
00000000: 8920 02be e531 e83d 20c9 283d 4718 563e
00000010: d494 0f3c 1d0a 2c3e be30 7a3e 47fb 963d
00000020: dd51 ac3d 5d46 943d 7c4f 1e3d d520 1dbd
00000030: 71c3 a3bd f65a c439 9928 5ebd d816 393e
00000040: 1924 f53d d929 0e3c a4b2 23bc 1bd4 f9bc
00000050: eb6d 033d 84a5 2e3e 1828 403e ba24 3b3e
00000060: 3056 fd3c 3d2b 9cbd 71bd 003c 17af cf3d
00000070: e45a 90bd 1a75 0a3e c10e 103c e2d1 553c
00000080: b42a ee3d ca7d 173d bdc2 bd3d 3000 7f3d
00000090: 5aef d6bd 5f90 58bd 9e94 893c 17b3 2b3e
000000a0: ea4e ff3d 6730 293e f897 e0bd 7fc5 983d
000000b0: 1423 ca3d a0e6 423c c2f2 723d 7256 3a3e
000000c0: f437 3a3d c26d e63c 7cde 4cbd 193b 243e
000000d0: 598a 743d b9c0 3e3e 58ca 1a3e e416 313d
000000e0: 12d9 9c3d 8895 3c3e 708c bf3d 3baa 3b3e
000000f0: c08e af3c b30d dc3d dd7b 873d b22a 72bc
00000100: 3d4a 093e 4fc2 463d 982f 36bd f025 163c
00000110: d473 4f3d 2b5b 283e 29b8 1d3e 6d5d 1a3d
00000120: b4da a7bc 615f 6b3d 5651 16bd 681e bd3d
00000130: 2625 c53d c0b7 853e e347 e53d e2fa 7e3e
00000140: 5217 3a3e 2781 013d 2e93 243b fd29 5b3e
00000150: ba68 8abd 561f dc3d 7461 1d3e a545 3abb
00000160: b55a 8a3c b6c0 1e3e b783 a83d 5c32 2d3d
00000170: ce0f 553e bffc 5b3d d607 99bd fc39 a0bd
00000180: d406 8ebd 6646 d53d a440 edbc d506 5c3d
00000190: b0ba a13d c491 9d3d d536 21bd 86b8 88bd
000001a0: 878d 92bd 417b 8e3c 18e0 553e b0db bf3d
000001b0: c0fe ff3d b1d9 263c bed4 783e b98a fc3b
000001c0: 85de 2d3d 7ede 153e 4f9b 5eba cf61 ae3d
000001d0: 8f68 cf3d 4400 8b3d c562 503e fa14 333e
000001e0: 2fec 78bd 5f0e 05be 82e3 353e 9935 a03d
000001f0: 38c6 b63d 965d 1c3e b988 8ebd 4bd9 64bd
00000200: 1c1a ee3a 50cc d1bc 243d 13be 5bdd 6e3d
00000210: e94d 273e 09e5 c6bc 2a23 613d 4ba1 e9bd
00000220: 19ab bbbd 49c4 363c 63c1 193e 311c 50bc
00000230: 954a e8bd 9640 5f3d 4e2d 09be 19a8 afbc
00000240: 5d34 963d c07d f9bd 56dc e03c 7164 d53d
00000250: cf7f 6b3d e32b da3c a68d 5fbd 8a9d 453e
00000260: 3dc4 433e 2010 1a3e 02d6 873d e97d d3bb
00000270: 32f0 db3d 81f8 4f3d 07cc 233e 4896 33bd
00000280: f1d4 f3bd acf9 713d 8af4 8cbd 3d37 e3bd
00000290: 5439 263d ae1c 31bd 661f 01be 20ae 8d3d
000002a0: 0670 c6bc dba1 14be 2513 ae3d f04f f63c
000002b0: c224 92bd 6fc4 703d 0fb9 883d fc0d 973d
000002c0: d3b6 98bd b20f 273e 1709 1cbe d52f cdbd
000002d0: 98a2 783e b03e d23c ea0f 003e 344d 21bd
000002e0: dc67 15bd b265 0d3e ee1d 8d3d 058c b7bd
000002f0: b92d fd3d 0339 54bd 56ec 433d f903 f43d
00000300: 6ad0 ffbd 703d 1e3e 760f bc3d 0405 c03d
00000310: 55db 7ebc 463c b93c ff25 213e 14f7 24bc
00000320: 1c60 c73d da26 353c 19b5 10be 266b 70bd
00000330: 2940 0d3d a749 d8bc eb34 893e 64ef f03d
00000340: 6071 bc3d a11b 303e d123 233e dd8f b5bd
00000350: e031 443e 5cc7 ec3c d13b 1b3e ecdf 823d
00000360: a143 02be f8fe c63c eb24 c8bd 0122 403d
00000370: 733e 493d 0bef 403e 40a5 90bc c233 883d
00000380: a7d5 383e 33f0 6b3e 2633 3c3e 443a 8a3e
00000390: bec9 703d bda1 6d3e 8ff5 063c 03a6 1f3d
000003a0: eb8e 5d3c 04ef 533e d8eb 513d 34f3 863d
000003b0: 5925 97bc 6e2a 183e 04d5 c1bd f628 6b3d
000003c0: d55c ad3d 701d 70bb 5118 853d e91b 053e
000003d0: 2049 1f3d 54df f13c 4bad 63bd 9db4 bb3b
000003e0: 5c0f 93bd 13fe 4c3e bca7 a7bc cd96 e93d
000003f0: 3f96 b73d d91f cbbd 3332 313c 2e52 de3d

lstm.weight_hh_l0_reverse f4 [200, 50]
-0.12207985 0.08748681 -0.052490517 0.16757423 -0.22966532 -0.17806779 0.017013151 0.0036225468
-0.010330479 0.00072315795 0.13028556 -0.1351108 0.033645578 0.18711583 -0.23738746 -0.02589422
-0.014587487 0.2081938 0.11540771 -0.009003594 -0.012228272 -0.0049426313 0.15997389 0.083085254
0.116730645 0.06374532 -0.0015467078 0.14179006 0.07640925 0.035410453 -0.147129 -0.22091556
-0.028014436 -0.027557967 0.1947838 0.11748157 -0.15340127 0.05706316 0.16165598 0.003802079
-0.0071747857 -0.19754377 -0.15058738 0.1384423 0.1692795 -0.15940827 0.122434005 -0.15787213
-0.023649842 -0.13669755 0.026727142 0.11395202 -0.20215333 0.09818677 0.06922579 -0.21221533
0.0013493096 0.12595612 0.08646993 0.048992645 0.21892184 -0.09459335 0.052485477 0.08504419
0.01910555 0.03603697 -0.16423845 0.048855357 -0.167292 0.13528347 -0.023403525 -0.036542304
-0.10790619 -0.17454359 0.057774946 0.060193125 -0.063917495 0.15957828 0.120789364 -0.02873515
0.02963992 -0.15739015 0.028266493 -0.2463077 0.18287872 0.11825875 -0.17588367 0.06424328
0.015555695 0.10964205 0.060070965 -0.05023271 -0.18973921 0.1720796 0.15220997 -0.092851005
-0.062123287 -0.15362766 0.1514973 -0.04009963 0.15372694 0.0038393268 -0.018246436 0.18533446
-0.097762115 -0.146016 -0.07216046 0.0009329864 0.16262178 0.106839515 0.019001743 0.064485185
0.025295801 0.0621818 -0.0079103615 -0.0652442 0.04338689 -0.04837097 -0.020009754 0.03757893
-0.016348522 -0.11394262 0.04616643 -0.038126398 0.14111304 0.0742948 -0.26946145 -0.008173715
0.038077496 0.07652178 -0.2292627 0.07535101 -0.16736837 -0.07772859 0.11893772 -0.0019078718
0.097464316 0.06197532 -0.026898382 -0.032751516 -0.032858685 -0.064872526 0.053385533 0.07566607
0.040242564 -0.023791028 -0.059593596 -0.16741213 0.18834367 -0.0058831703 0.08155431 0.0411742
0.04632038 0.13613428 -0.14626636 -0.12070784 0.05024554 -0.055959985 0.10664657 -0.097402945
0.039908815 0.08973603 0.118994415 0.043416426 0.08790936 0.053540576 0.038919073 0.100969166
-0.14804769 0.05628896 0.15775262 -0.09055777 -0.08773302 -0.14173232 0.1537347 -0.09747897
0.10472558 0.17785843 -0.09899318 -0.07088881 -0.025719922 -0.12986515 -0.057773314 -0.12161393
0.1353386 -0.06280542 -0.11832062 -0.113269456 0.060082857 0.013380308 0.17535304 -0.020147411
-0.13793373 0.08814307 0.04892663 -0.1327876 0.110301256 -0.058136098 0.08300123 -0.05796087
-0.01933721 0.03763606 -0.055819687 0.16739926 -0.06724762 0.06606763 -0.12828091 -0.072498776
0.065589875 -0.044801153 0.10083305 0.002326283 -0.06244642 0.114610694 0.087519035 -0.017623268
-0.08746316 0.11089819 -0.067090124 0.18902023 0.083524354 0.03726087 0.045985326 0.010670411
0.10215984 0.0044310647 0.0025140152 -0.0311079 -0.08435015 -0.0227831 0.09095659 -0.16143706
-0.04723518 -0.036283307 0.12576444 -0.18443741 0.068361394 0.055096507 0.115805455 0.08620988
0.005458206 -0.20016311 0.116559654 -0.017378943 -0.0030744337 0.09568812 0.034324188 -0.026868366
0.2067332 -0.18650723 -0.08174597 0.118918955 -0.11921471 0.010626027 -0.03773109 -0.061287783
00000000: 0005 fabd 492c b33d 4c00 57bd 9498 2b3e
00000010: 632d 6bbe 6757 36be 2a5f 8b3c 4068 6d3b
00000020: 2b41 29bc 4f92 3d3a 9469 053e 7c5a 0abe
00000030: f2cf 093d 4b9b 3f3e b315 73be 1e20 d4bc
00000040: 5b00 6fbc c130 553e e15a ec3d cf83 13bc
00000050: 1759 48bc ccf5 a1bb 32d0 233e 9a28 aa3d
00000060: 7a10 ef3d e88c 823d e7ba caba 6a31 113e
00000070: 747c 9c3d 8d0a 113d fca8 16be b037 62be
00000080: 887e e5bc 3fc1 e1bc 6875 473e 2d9a f03d
00000090: 3915 1dbe 0fbb 693d 2589 253e 4d2c 793b
000000a0: 771a ebbb ea48 4abe 9433 1abe d1c3 0d3e
000000b0: 9b57 2d3e ec3b 23be aebe fa3d 3ba9 21be
000000c0: 50bd c1bc 71fa 0bbe e1f2 da3c ad5f e93d
000000d0: 4801 4fbe 2516 c93d 40c6 8d3d fa4e 59be
000000e0: 51db b03a a4fa 003e 2617 b13d 83ac 483d
000000f0: 0c2d 603e 29ba c1bd 03fb 563d a62b ae3d
00000100: 3e83 9c3c 809b 133d 202e 28be 8e1c 483d
00000110: 984e 2bbe c087 0a3e c0b8 bfbc 62ad 15bd
00000120: ecfd dcbd 8ebb 32be 6ca5 6c3d 118d 763d
00000130: 2de7 82bd 7d68 233e 6a60 f73d fa65 ebbc
00000140: 6bcf f23c e22a 21be 228f e73c 1638 7cbe
00000150: 8f44 3b3e a531 f23d d91a 34be fb91 833d
00000160: 50dd 7e3c 038c e03d f90c 763d d0c0 4dbd
00000170: ff4a 42be a235 303e eedc 1b3e ab28 bebd
00000180: fd74 7ebd 9250 1dbe 1c22 1b3e 823f 24bd
00000190: 986a 1d3e 379d 7b3b 8d79 95bc 51c8 3d3e
000001a0: 8137 c8bd 3885 15be ddc8 93bd a893 743a
000001b0: 5386 263e adce da3d 8ba9 9b3c cf10 843d
000001c0: 2439 cf3c 58b2 7e3d 769a 01bc c09e 85bd
000001d0: 74b6 313d a320 46bd 7feb a3bc 5dec 193d
000001e0: 56ed 85bc c05a e9bd 0319 3d3d 6d2a 1cbd
000001f0: f07f 103e df27 983d daf6 89be 0ceb 05bc
00000200: 26f7 1b3d 73b7 9c3d d7c3 6abe a151 9a3d
00000210: 9d62 2bbe 2b30 9fbd 9f95 f33d 8e11 faba
00000220: 5f9b c73d d5d9 7d3d ff59 dcbc 7426 06bd
00000230: d496 06bd e3db 84bd caaa 5a3d d0f6 9a3d
00000240: 63d5 243d 67e5 c2bc 6a18 74bd 166e 2bbe
00000250: 2add 403e 9cc7 c0bb f205 a73d 47a6 283d
00000260: 70ba 3d3d c966 0b3e d9c6 15be ac35 f7bd
00000270: 44ce 4d3d 4c36 65bd 8469 da3d 327b c7bd
00000280: 6d77 233d 86c7 b73d 58b3 f33d 6cd5 313d
00000290: d309 b43d 5d4d 5b3d 9b69 1f3d ecc8 ce3d
000002a0: d099 17be 418f 663d e789 213e 5a76 b9bd
000002b0: 5fad b3bd 4722 11be a16c 1d3e 0ea3 c7bd
000002c0: 5d7a d63d 8520 363e f0bc cabd 272e 91bd
000002d0: 96b2 d2bc 5ffb 04be b6a3 6cbd b910 f9bd
000002e0: 3496 0a3e 21a0 80bd 1552 f2bd d1f9 e7bd
000002f0: 7119 763d 1439 5b3c bf8f 333e 2f0c a5bc
00000300: 803e 0dbe 5b84 b43d 4a67 483d 79f9 07be
00000310: a0e5 e13d 1e20 6ebd 8dfc a93d 6168 6dbd
00000320: 1269 9ebc 4528 1a3d 2fa3 64bd b66a 2b3e
00000330: 1fb9 89bd 774e 873d 125c 03be 3d7a 94bd
00000340: fc53 863d 6a81 37bd 8f81 ce3d 8d74 183b
00000350: d1c7 7fbd 03b9 ea3d 2e3d b33d ac5e 90bc
00000360: e31f b3bd 971e e33d 8c66 89bd 858e 413e
00000370: d10e ab3d db9e 183d 1c5b 3c3d f3d2 2e3c
00000380: 2e39 d13d 7732 913b 2dc2 243b ffd5 febc
00000390: c5bf acbd a0a3 babc 7347 ba3d c24f 25be
000003a0: ad79 41bd ce9d 14bd 65c8 003e 29dd 3cbe
000003b0: 0f01 8c3d e0ac 613d 692b ed3d ce8e b03d
000003c0: c0da b23b 8ff7 4cbe d4b6 ee3d 495e 8ebc
000003d0: 707c 49bb 22f8 c33d 8597 0c3d 0c1b dcbc
000003e0: deb1 533e c0fb 3ebe 6e6a a7bd c88b f33d
000003f0: d826 f4bd ca18 2e3c ea8b 1abd e608 7bbd

lstm.bias_ih_l0_reverse f4 [200]
0.10500964 0.19183332 -0.09916865 -0.050534733 -0.0075465613 0.13229308 0.11414779 0.08671386
0.09587833 0.017049395 0.12418933 -0.034453653 0.08416037 0.047518693 0.089074306 0.058313996
0.13690121 -0.053731393 0.10370577 0.1652576 -0.06664487 0.09613645 0.04095639 0.058114037
-0.062482376 0.08354534 0.0019131294 -0.05964891 -0.005421951 0.010483103 0.107932284 -0.00240873
0.01243387 0.043458037 0.0769995 0.24024741 0.1167657 0.08659779 -0.020945305 0.01828768
0.024695063 -0.052215934 -0.022326412 -0.043443028 -0.01956047 -0.059057407 -0.023629375 0.03083774
0.07549564 0.074289255 -0.058446877 0.047450222 0.052753504 0.12426512 0.108151816 0.06894436
0.13285 0.123627774 0.04684776 -0.039168473 0.053080898 -0.102899306 0.015012054 0.2707777
-0.070958875 -0.09243976 -0.01497686 0.08390426 0.096182995 0.0031844503 0.0115477415 0.09943864
0.14398208 0.19142266 -0.049229793 0.06269249 0.15303649 0.07021326 -0.114948586 0.13422866
0.14187771 0.05302271 -0.064957954 0.14406794 -0.038401764 0.24080084 0.28371572 -0.061169684
-0.02653743 0.13928545 0.15134738 -0.03898853 -0.026570503 -0.07639079 0.052944016 0.036582146
0.16421571 0.035744164 0.0016061697 0.1420103 -0.12403627 0.059749093 -0.016442467 0.0013816117
-0.056822445 -0.025652751 -0.08096445 0.09605779 0.032808565 0.12491515 0.058023054 0.044995192
0.10198791 -0.119493976 -0.024958147 0.099946976 -0.10337196 0.03334404 0.058445122 0.06074855
0.019203892 -0.014969444 0.14122434 0.027288958 0.036479387 -0.033482533 -0.03127807 0.08430721
0.09925318 -0.071829624 -0.043666437 -0.11459795 -0.09509181 -0.02557773 0.10243586 -0.036726583
0.01629183 0.10877703 0.013948619 -0.15756771 0.08981357 -0.067394964 0.063482806 -0.10376947
0.09021481 -0.054267973 0.10637304 -0.14656614 0.052048333 -0.027889285 0.08012089 0.094586186
0.12614918 -0.07568118 -0.001858651 0.11695034 -0.02461282 -0.07125864 0.11207904 0.10255877
-0.08600116 0.017344762 0.025260964 0.018114336 0.056246407 0.1434469 -0.006082693 -0.06459618
0.25298962 0.18479937 -0.07236748 0.14598301 0.0072688605 0.042836796 0.097848296 0.24387176
0.19742426 -0.029953672 0.07165914 -0.049307026 0.099476 0.08991226 -0.008181538 -0.045464452
-0.026079912 0.123879276 0.24905288 0.013830654 0.100278795 0.2092827 0.16207634 -0.03643515
0.11936851 0.031391047 0.16096708 0.0010082856 -0.08353422 0.14434864 -0.0042444053 -0.102709986
00000000: 4b0f d73d f46f 443e ef18 cbbd 82fd 4ebd
00000010: 2549 f7bb d677 073e 51c6 e93d 0997 b13d
00000020: dc5b c43d 2cab 8b3c fa56 fe3d 461f 0dbd
00000030: 465c ac3d f6a2 423d 976c b63d a8da 6e3d
00000040: d52f 0c3e 7315 5cbd b163 d43d 4a39 293e
00000050: 1b7d 88bd 30e3 c43d e3c1 273d fc08 6e3d
00000060: 85ed 7fbd d219 ab3d f8c1 fa3a 6a52 74bd
00000070: 9faa b1bb 52c1 2b3c 9a0b dd3d c9db 1dbb
00000080: 6eb7 4b3c 0e01 323d eab1 9d3d 6b03 763e
00000090: db22 ef3d 2f5a b13d 7d95 abbc 0bd0 953c
000000a0: 4d4d ca3c 60e0 55bd e1e5 b6bc 51f1 31bd
000000b0: 473d a0bc 2ee6 71bd 6492 c1bc 6e9f fc3c
000000c0: 759d 9a3d f724 983d fe65 6fbd 2a5b 423d
000000d0: 0f14 583d b67e fe3d b37e dd3d b332 8d3d
000000e0: d509 083e 8f30 fd3d 70e3 3f3d 1f6f 20bd
000000f0: 5b6b 593d dfbc d2bd 1ef5 753c 60a3 8a3e
00000100: e352 91bd 0f51 bdbd 8161 75bc ffd5 ab3d
00000110: 97fb c43d 36b2 503b bd32 3d3c 7ca6 cb3d
00000120: 0a70 133e 4d04 443e 2ea5 49bd ec64 803d
00000130: 99b5 1c3e f8cb 8f3d 2a6a ebbd 3d73 093e
00000140: 6448 113e 572e 593d ad08 85bd 8c86 133e
00000150: 2b4b 1dbd 7f94 763e 3043 913e 108d 7abd
00000160: 0665 d9bc d8a0 0e3e cffa 1a3e 70b2 1fbd
00000170: 62aa d9bc c672 9cbd d3db 583d 29d7 153d
00000180: 2a28 283e 7968 123d 1d86 d23a 266b 113e
00000190: ba06 febd 77bb 743d 5ab2 86bc 3217 b53a
000001a0: a7be 68bd b825 d2bc b1d0 a5bd f2b9 c43d
000001b0: 4662 063d 84d3 ff3d 95a9 6d3d e14c 383d
000001c0: 0adf d03d 42b9 f4bd 0775 ccbc 00b1 cc3d
000001d0: aeb4 d3bd c393 083d 2764 6f3d 79d3 783d
000001e0: 7b51 9d3c 6642 75bc 1d9d 103e 188d df3c
000001f0: 696b 153d fb24 09bd 6f1d 00bd 42a9 ac3d
00000200: 4045 cb3d 691b 93bd 94db 32bd 54b2 eabd
00000210: 7fbf c2bd 6388 d1bc e4c9 d13d 9d6e 16bd
00000220: 7276 853c 7ec6 de3d c088 643c 6e59 21be
00000230: 2df0 b73d 5f06 8abd 4603 823d 1685 d4bd
00000240: 8bc2 b83d 1848 5ebd 1cda d93d 6f15 16be
00000250: a230 553d 1278 e4bc 6c16 a43d 67b6 c13d
00000260: 402d 013e bcfe 9abd fb9d f3ba a983 ef3d
00000270: d3a0 c9bc 0df0 91bd b289 e53d 550a d23d
00000280: 6021 b0bd 9a16 8e3c 15f0 ce3c 8464 943c
00000290: a262 663d bfe3 123e 5451 c7bb 014b 84bd
000002a0: db87 813e 0c3c 3d3e 6735 94bd 927c 153e
000002b0: 9f2f ee3b a375 2f3d b064 c83d 85b9 793e
000002c0: 9629 4a3e 6761 f5bc 07c2 923d 2af6 49bd
000002d0: 13ba cb3d eb23 b83d dc0b 06bc ef38 3abd
000002e0: 8aa5 d5bc 6bb4 fd3d b807 7f3e f899 623c
000002f0: f85e cd3d 344e 563e 57f7 253e 063d 15bd
00000300: 7a77 f43d e693 003d 8ed4 243e 7328 843a
00000310: fd13 abbd 21d0 133e a714 8bbb 9d59 d2bd

lstm.bias_hh_l0_reverse f4 [200]
-0.024033602 0.13910086 0.11792312 0.12656559 0.10842468 0.16680522 0.043701053 -0.04766323
0.12188118 -0.008775503 -0.0045313057 0.14640696 0.05066346 0.03584661 0.002796482 0.07230984
-0.047061387 0.066783726 0.12930062 -0.024975013 -0.03359006 0.0061025354 0.18459508 0.119402245
-0.063305475 0.1613666 0.15769486 0.06870669 0.03382864 0.12987274 0.09337752 -0.0075906697
0.01837636 0.105480716 -0.04031919 0.0495284 0.078198835 0.027983204 0.037461177 -0.026174076
0.00790342 0.0065281885 0.14819092 0.02762108 0.03843679 0.010333962 -0.08355037 0.033298988
-0.0007375549 0.148733 0.039168943 -0.0597791 0.1234167 0.11919801 0.021902196 -0.03644905
-0.048203643 0.09112208 0.15645501 -0.044018507 0.15426275 0.108258024 -0.0749713 0.049303867
0.12208921 0.10959662 0.06361089 0.14278086 0.07600533 0.15390098 0.0859384 -0.10606683
0.125323 0.092218935 0.06265165 0.06312739 0.22977436 0.17058393 0.10038162 -0.033255156
-0.003349053 0.0017134276 0.1762967 0.13323662 -0.087358415 0.26453227 0.12974726 0.15312693
0.042245127 0.112911776 -0.06293456 0.15314299 -0.08506721 -0.09433574 -0.0066979714 0.15437782
-0.044059776 -0.030209107 0.13900037 -0.03323241 -0.076299004 -0.16094469 -0.06039491 -0.0029908177
-0.08055822 0.056774814 -0.13217285 -0.040813524 0.08144038 0.124851644 -0.021149097 -0.12623927
0.11892906 0.037212208 -0.07064709 0.1146898 0.0055817035 0.1050071 0.06876431 -0.13092846
0.0845319 -0.04633158 0.11825616 -0.020648757 -0.030612871 0.057907753 0.0014880433 -0.13044123
0.10913588 -0.14323452 0.060186952 -0.15014355 0.026114555 0.13036175 0.09600564 0.09803748
0.024106344 -0.06215328 0.05170531 0.09146779 0.0518239 -0.1076169 -0.07901132 0.12940942
-0.066931255 -0.06784741 0.052081298 -0.07589811 0.030535627 -0.11121566 0.1908158 0.10545488
0.10963649 0.17541449 0.08440764 -0.070653714 0.08842507 -0.0034638147 0.15810362 0.08644677
-0.068208545 0.115320936 0.077711 0.21310075 0.16741927 0.023758749 0.13080432 0.06318698
0.24591334 0.030294899 0.14409573 0.040274918 -0.031162422 0.011830321 -0.07118989 0.074057974
0.07843299 0.020310188 -0.053178675 -0.0828336 0.051959183 0.08275831 0.13659753 -0.034375746
0.03785006 0.0534655 0.2538861 0.09869875 -0.0354343 0.23715593 0.013994131 0.068151586
0.039311115 0.065440185 -0.033575322 0.04001585 0.0653522 -0.09364856 0.09995887 0.06524713
00000000: 1ee2 c4bc 7570 0e3e ad81 f13d 699a 013e
00000010: c20d de3d fdce 2a3e e0ff 323d 853a 43bd
00000020: d79c f93d 21c7 0fbc 597b 94bb b5eb 153e
00000030: 7d84 4f3d e5d3 123d 2f45 373b 2e17 943d
00000040: 71c3 40bd e8c5 883d 6267 043e 6698 ccbc
00000050: bb95 09bd c7f7 c73b 7e06 3d3e 2a89 f43d
00000060: 4da6 81bd 493d 253e c37a 213e 18b6 8c3d
00000070: e68f 0a3d 5cfd 043e b73c bf3d 27bb f8bb
00000080: 058a 963c 4606 d83d bc25 25bd 4bde 4a3d
00000090: b626 a03d 083d e53c e470 193d 046b d6bc
000000a0: 597d 013c 6aea d53b 5cbf 173e 9a45 e23c
000000b0: e56f 1d3d c74f 293c 751c abbd 8564 083d
000000c0: 7958 41ba 774d 183e 9d6f 203d eeda 74bd
000000d0: e5c1 fc3d 161e f43d 3c6c b33c 994b 15bd
000000e0: 2f71 45bd 379e ba3d be35 203e c04c 34bd
000000f0: 0ef7 1d3e 62b6 dd3d 8e8a 99bd daf2 493d
00000100: e809 fa3d 3174 e03d 6d46 823d 2535 123e
00000110: afa8 9b3d 3898 1d3e 7900 b03d 9139 d9bd
00000120: ac54 003e 48dd bc3d 824f 803d ef48 813d
00000130: f849 6b3e 8ead 2e3e e194 cd3d 8f36 08bd
00000140: c97b 5bbb 1795 e03a 1f87 343e 2e6f 083e
00000150: f8e8 b2bd c670 873e 77dc 043e 4ecd 1c3e
00000160: 3a09 2d3d 4a3e e73d d6e3 80bd 84d1 1c3e
00000170: b837 aebd 1933 c1bd a87a dbbb 3815 1e3e
00000180: 0678 34bd 1779 f7bc 1d56 0e3e b51e 08bd
00000190: a742 9cbd afce 24be a760 77bd 9801 44bb
000001a0: b5fb a4bd b58c 683d 5258 07be 152c 27bd
000001b0: 37ca a63d 38b2 ff3d df40 adbc de44 01be
000001c0: 1491 f33d d46b 183d 6caf 90bd 7ce2 ea3d
000001d0: b9e6 b63b f60d d73d 4dd4 8c3d 1c12 06be
000001e0: 101f ad3d 2fc6 3dbd 4930 f23d 9527 a9bc
000001f0: d8c7 fabc ae30 6d3d 730a c33a 6392 05be
00000200: a282 df3d 12ac 12be 9886 763d 3bbf 19be
00000210: 31ee d53c 8d7d 053e 9b9e c43d e0c7 c83d
00000220: ab7a c53c 7094 7ebd f2c8 533d 7753 bb3d
00000230: 4c45 543d 4066 dcbd b0d0 a1bd e783 043e
00000240: 4113 89bd 95f3 8abd 3353 553d 7870 9bbd
00000250: da25 fa3c 09c5 e3bd 3865 433e baf8 d73d
00000260: 1989 e03d db9f 333e eadd ac3d e5b2 90bd
00000270: 3418 b53d 2b01 63bb eae5 213e 010b b13d
00000280: ecb0 8bbd 622d ec3d f226 9f3d 1537 5a3e
00000290: f56f 2b3e b5a1 c23c 91f1 053e 2d68 813d
000002a0: b5d0 7b3e 022d f83c d58d 133e 50f7 243d
000002b0: 5648 ffbc f6d3 413c 01cc 91bd b5ab 973d
000002c0: 7aa1 a03d 8d61 a63c e2d1 59bd aaa4 a9bd
000002d0: 27d3 543d 307d a93d 39e0 0b3e 95cd 0cbd
000002e0: aa08 1b3d a4fe 5a3d 5cfd 813e 9222 ca3d
000002f0: 8e23 11bd 01d9 723e a447 653c 0f93 8b3d
00000300: b104 213d 8105 863d 4786 09bd a9e7 233d
00000310: 60d7 853d d1ca bfbd 3cb7 cc3d 4aa0 853d
