notebooks/lstm_model.pth (torch, 335529 bytes, 18 tensors)

lstm.weight_ih_l0 f4 [200, 3]
00000000: b8e5 c43d 45bf f83d 3a71 e0bc a49b a4bc
00000010: 16d5 283e 1fee 8fbd 654c b43d 7317 e5bc
00000020: c7f3 073e 94b1 d33d d590 f53d 61fb 883d
00000030: 1ca8 5c3e ae1f f6bc ff2f 5d3e 7df4 063d
00000040: 9f5b d83d 9352 133e 34b0 513c 08fb db3d
00000050: ac5f aabd d401 153e 8aad 58bd 4558 f9bc
00000060: d22e 263e 2721 c93d bfb7 9f3c f092 3a3e
00000070: 8c22 98bd 0bb0 143c d13d 3b3d 822d 903d
00000080: 7734 543e d5de 37bc 4519 c3bd c2ee 24bd
00000090: 682e 4b3e 85f7 abbc 8330 a7bd 00fb c63d
000000a0: b64c a33d 6f7c ed3d 195c 673e ee83 9dbd
000000b0: 5143 ee3d 5b42 1d3e e2ac 013d 8fe4 e63d
000000c0: 659b 4d3e 9d2d 393c 0723 0bbd fb56 9239
000000d0: a0ac a93d 1630 e63d 3063 b33b 723b 5cbd
000000e0: ee69 653d bba7 353e 0191 523c fdd5 0d3e
000000f0: c3cf 1e3d e9e9 9a3d 3836 533e ccd6 593c
00000100: b66f f53d f95b 963d 03e6 dbbd d15e 763d
00000110: b980 6fba b91d b5bd ff98 df3c f9b4 413e
00000120: b007 2f3d 6cdb a4bd 3e6f 4a3d 60f0 7d3e
00000130: 4292 97bd 23d5 8ebd a5e2 3cbd 3a5e 8b3d
00000140: 4a7e c0bd 0ef0 ddbb 57e1 643d ce07 23bc
00000150: 0b5e 2c3e fbbb 013e b5bc b03d 0af3 173e
00000160: ecbd b2bd 1a96 abbd 054b 32bd 495f 5f3d
00000170: ef24 2a3e a8f8 293d 6f16 2bbd c217 f63b
00000180: a295 583e b0d0 3e3d 053e bbbb b996 a13d
00000190: 610e d73d 4afe 633d 4b47 b9bd eb70 b93c
000001a0: 6672 b03d 0f9a a63d 9278 e93d 69c7 cd3d
000001b0: fb64 f03d b96a 453b 4310 7fbc b6e1 233e
000001c0: 07dc 8a3d 159b 873d efad dd3d b492 43bd
000001d0: c675 6dbd 0fd8 d43d 6eb3 b13d acd5 323e
000001e0: 6d95 253d a945 cf3d abb9 0d3e cb0f 3e3d
000001f0: cc8a a93c 5ee2 053b 5160 8b3d f2c8 043e
00000200: 14a1 293e a237 dcbc 9ea1 6e3e b72c 9a3d
00000210: 5fb8 b23c db3b 1e3e 144b 353e a5ce 9a3d
00000220: a017 16bd 6afd ce3d 0ad6 223e c410 363e
00000230: 940e 0c3e f0e7 e2bd d6aa 2f3d 0669 22bd
00000240: 904d 0ebd 31b8 033e 3ab4 f53d 31ff ccbc
00000250: 0e6a 07bc fb36 df3c 9772 da3d 7d39 9ebd
00000260: 5b0f 6dbd 8bbf 473e 4a63 a7bd 1b73 4e3d
00000270: d7d3 d4bd 0fab 09bc ee29 bfbd 5131 5f3d
00000280: 6cb3 b6bd b4b3 843d 85db d43d 49a2 263e
00000290: 1e32 393d 1131 adbb de85 893d d543 373e
000002a0: 7ec3 063e 88ff ffbc 2ceb debd 840f 273e
000002b0: d483 e8bd 1405 8c3d bf71 3abd d636 263e
000002c0: 04f2 95bd 8e5f 393e e8b2 fdbd 5b32 d43c
000002d0: 5540 20be 34a7 373e 72ac 593e 43b4 8b3c
000002e0: 6e0b a73d 8742 de3d 3be8 fd3d a0f2 f33d
000002f0: 6274 1f3c 2d8c bf3d 1f19 7b3d 2eb0 0b3d
00000300: b0de 66bb 4668 16be 143b 053e 1477 eabc
00000310: 6e04 d4bd b2f8 23bd 2fd4 3a3e 0711 383d
00000320: 48ac b73d 6c0a edbd ce3e 123e 7b9f 53bd
00000330: 81bd 3e3e 6aa9 ee3c 3009 f63d 91b3 a0bd
00000340: 3e8c f73d 5824 4c3d ad5b 583e 1e3f ff3d
00000350: 48e0 4a3e eb7a 3e3e 924b e4bc 934a 4e3d
00000360: 32cd 4fbd 2057 8c3d 6e46 263e 72bf 473d
00000370: 5947 e13c 2930 48bd b319 5d3d 24ec f33d
00000380: f61b d73d 3581 ec3d 8360 6f3d 23ab b9bc
00000390: b1d4 b23d 7181 3b3d 1578 0fbd b7e1 cf3c
000003a0: f058 2abb a807 e63d 3f6f c53d eb05 71bc
000003b0: feb7 c0bb 27c2 133e fe90 b93d 7ca2 043e
000003c0: 9926 c8bd cbbb 623e 8013 6e3d ee52 923d
000003d0: 0b27 71bd 12f2 1e3e 8d66 7a3e 1481 653c
000003e0: d121 72bd 657e c8bd a1c9 e33d 1816 a1bd
000003f0: 20f0 103e 5d5f 1bbe aeaf d2bd 4aa1 1e3e
0.09614128 0.12145857 -0.02739774 -0.020093746 0.16487536 -0.0702784 0.088036336 -0.027965283
0.13276587 0.10336605 0.11990515 0.06688572 0.21548504 -0.030044403 0.2160034 0.032948006
0.1056435 0.14386968 0.012798358 0.1074124 -0.08319029 0.14551479 -0.052899875 -0.030437598
0.16228798 0.098207764 0.019496797 0.18220115 -0.07428464 0.009075175 0.04571325 0.0703993
0.20723139 -0.011222561 -0.09526304 -0.04026676 0.19841921 -0.02099205 -0.0816355 0.09715843
0.07973616 0.115959994 0.22593726 -0.07691179 0.11633933 0.15357344 0.031659015 0.11274063
0.2007881 0.011302379 -0.03396895 0.00027912096 0.08284879 0.112396404 0.0054744706 -0.05376763
0.056009226 0.17739765 0.012851954 0.13851161 0.038772356 0.07564146 0.20626152 0.0132958405
0.11984198 0.07341761 -0.10737231 0.060149018 -0.00091363076 -0.0884356 0.027294634 0.18916692
0.04273194 -0.08049664 0.049422495 0.24798727 -0.07400943 -0.06974246 -0.046114583 0.06805082
-0.09399088 -0.0067730015 0.055878963 -0.009950591 0.1683275 0.12669365 0.08629743 0.14838806
-0.08727631 -0.08378239 -0.043528575 0.05453423 0.16615652 0.041496903 -0.04176944 0.0075101564
0.2115083 0.04658574 -0.0057141804 0.07890076 0.105007894 0.05566243 -0.09046801 0.022636851
0.0861557 0.08134853 0.1139995 0.100478 0.117380105 0.0030123426 -0.015567842 0.1600407
0.06780248 0.066213764 0.10824191 -0.04774733 -0.057973646 0.103927724 0.086768016 0.17464322
0.040425707 0.101207085 0.13840358 0.04640178 0.020696066 0.0020429115 0.0680548 0.1296728
0.16565353 -0.026881997 0.2330384 0.0752806 0.02181643 0.1545252 0.17704421 0.075589456
-0.036643624 0.10106929 0.15901962 0.17779833 0.13677436 -0.11079395 0.04288753 -0.03965094
-0.034741938 0.12863232 0.11997266 -0.025024028 -0.0082650315 0.027247896 0.106663875 -0.07725809
-0.057875972 0.19506662 -0.08173235 0.050402742 -0.10391968 -0.0084026 -0.09334169 0.05449039
-0.08920941 0.06479588 0.103934325 0.16272844 0.04521381 -0.00528539 0.06714986 0.1789697
0.13160512 -0.031249776 -0.10884699 0.16314512 -0.11353269 0.06836906 -0.045518633 0.16231856
-0.073215514 0.18102857 -0.12387639 0.025902918 -0.1564954 0.17934877 0.21257189 0.017053729
0.08156477 0.10852533 0.1239781 0.119115114 0.009732338 0.09352908 0.061303254 0.034103565
-0.0035227947 -0.14688215 0.13010818 -0.028621234 -0.103524074 -0.040032096 0.18245004 0.044938114
0.08968407 -0.115742534 0.1428177 -0.051665764 0.18626978 0.029133517 0.12013471 -0.078467496
0.12087296 0.049839348 0.21128722 0.124632105 0.19812119 0.18601577 -0.027868066 0.05036409
-0.0507328 0.06852555 0.16237804 0.04876656 0.027499842 -0.048874054 0.053979587 0.119102746
0.1050338 0.11548082 0.05844165 -0.022664612 0.08731974 0.04577774 -0.03502663 0.025376184
-0.0025992952 0.11231929 0.09640359 -0.014710884 -0.0058813086 0.14429532 0.09060858 0.12952608
-0.09772987 0.2214195 0.058124065 0.07144724 -0.058875125 0.1552203 0.24453183 0.014007825
-0.05911428 -0.09789733 0.11122442 -0.07865542 0.141541 -0.15173097 -0.102874145 0.15491214

lstm.weight_hh_l0 f4 [200, 50]
00000000: df79 1cbc 700c 27bd 8533 db3d 836e e43d
00000010: db3d eabb 99a9 01be 90d8 edbd 08c0 7cbd
00000020: 2f8d c8bb af1b 313c f862 a43b d78f 3fbc
00000030: 35c5 6e3d e75c df3d 883d ed3d 9fd5 c6bd
00000040: 2bae 093e f962 0e3e 8d13 063e a2eb af3d
00000050: 687a 38be 9cf4 7fbd 5f2d 563d dd2d 07be
00000060: 58c7 0bbe b2c8 dbbd 8c6d 9fbd 5dde cebd
00000070: ba0c 3cbd 03bf ccbd 8d1e 163e f284 2a3e
00000080: 13b0 853d d18f ae3c 9655 43bd a6ff 09be
00000090: 69e1 52be aa3e 77bd 664d 773d 88a5 55be
000000a0: d9b5 6c3d e5c5 c83d 82d5 b43d 15a0 403e
000000b0: fdab b03d 6c39 8d3d 1710 a2bd 6b89 b3bd
000000c0: f550 af3d 3298 263d ff87 29bd 6c87 28be
000000d0: 4263 0fbd 1795 693c 197d 61bc c68e a1bd
000000e0: 9e91 003d 54c9 2a3d 294e 783d 6f19 60bd
000000f0: c64a 5bbd 1957 8abd 3a64 903c 9eba 2abe
00000100: 971d 023e 2575 e4bd 97c1 8fbb 16de 66bc
00000110: 688b 153e b1ee adbd 6835 20be d2d8 4b3d
00000120: 46eb 143d 8605 fa3c 69bd f3bd 8809 a0bd
00000130: 331e 1cbe 36ad 473a 6fef 02be bf7a 433d
00000140: 9f9b dfbd 0a59 1fbe d9dd 4fbd 7cc1 9b3c
00000150: fbc6 07bd ca51 02be 721d bdbd 8ed8 babd
00000160: bc4b 333e 2bf8 a53c e2b7 253e f9e4 64bd
00000170: ea76 a03d b21c 843b 284e 66bd 9194 b7bd
00000180: 2aad 5e3d effc f43d 7f77 84bb 72f8 46bd
00000190: 2ae1 1d3e 21ad f3bd 33f5 7b3c 1e8d 1a3e
000001a0: f438 08be fa71 3b3e 683a f63c 4a9f 033d
000001b0: 937d a1bd 6e76 f7bb 1830 b2bb f068 4b3d
000001c0: 356d 333d 5d22 e4bd 4236 233e e89b 19be
000001d0: ca35 9bbd 5bbe 0a3e a9e7 133e d3a4 2c3c
000001e0: 804b 4ebd 6cfd 59bd 37c4 373e 0a2c 3dbe
000001f0: 843c 17be 511f 35be e43d fcbc 6056 073d
00000200: 6966 863c 89ce 19be 2a49 c93d 42ac 113e
00000210: 8088 1e3e 70ff adbc 2c18 ec3b 17b6 1abe
00000220: 2e68 50bd cd6e 323d e35e 6f3c 0eb9 c6bc
00000230: c676 56bd 9eb6 c7bc 22d8 463e 90d9 24be
00000240: 6e71 02be 9ef5 6cbc acd7 103e e962 0d3e
00000250: b334 fc3d f5b6 e43d 9e76 8a3c bba2 933c
00000260: 1fcb 4f3d d2c7 e93d b8bd b03d 6acc 893d
00000270: ce81 ecbc 0b30 0cbe 9999 8d3c 5794 5fbc
00000280: f8ea d43d 1935 92bc 3c6c 32bb deb0 e6bd
00000290: edc1 bfbd b3bc 74bd c1ce 013e b29e 8cbc
000002a0: 7fec 06be 73e1 94bc 56f0 283c 03ab 89bd
000002b0: a5d0 7b3d 803d 873d b285 d83d b310 ffbd
000002c0: ecef e7bb 3896 c33d e2d9 ae3d e8c4 65bd
000002d0: 8be9 a23c 44c0 82bd f36d 73bd 3238 b6bd
000002e0: 65b8 c5bd 8b76 f23d c082 10bd f515 c63d
000002f0: 0417 093e 132a 4ebd abd2 993c 270e fe3d
00000300: e555 8dbc 3599 0a3e e34f a8bd 1bb2 f7bc
00000310: 34aa f7bc aadf 6fbc 2739 c43d c2ba f3bc
00000320: bdcd 7a3d 354e 8ebd c36c 33bd afb4 3d3e
00000330: e6a6 2cbe a747 33bd 81b5 aebd 36bc 73be
00000340: b610 65be a99b 55be 781f afbc 8e06 dabc
00000350: de3c 2f3d 1b56 7ebd 4289 573e fcad d5bd
00000360: df80 563e 43cf fb3d 8d6e 833e 402e 773e
00000370: 1c8c 6abe fdfc 913e 0075 003d 4b65 6c3d
00000380: 28b5 32bd be4f 09be 423b 08be cf34 163e
00000390: b510 12be 9e61 43bd b2f6 0abe bc9f febd
000003a0: 41ad b73c 446f 743c c457 76be 39b3 0bbd
000003b0: fb85 4bbe 472d 14bd 8961 023e ce43 ea3c
000003c0: debf 493e ebcd 34be 8eda 383d 9140 ddbb
000003d0: 9164 243e 9626 dc3b ab45 9fbe 8221 4c3c
000003e0: 0b11 6a3e 44ab febc 3707 d63b d466 06be
000003f0: 59cf 41bd f48e c2bd 406e f4bd a684 133e
-0.009550541 -0.040783346 0.10703186 0.11153891 -0.007148487 -0.12662353 -0.11613572 -0.061706573
-0.006120346 0.010809823 0.005016681 -0.011692009 0.05829354 0.109063916 0.11584002 -0.09708714
0.13445346 0.13904943 0.13093396 0.08589865 -0.18015444 -0.062489137 0.052289363 -0.13201089
-0.13650262 -0.10731639 -0.07784566 -0.10101006 -0.045910574 -0.0999737 0.14660092 0.16652277
0.06527724 0.021308811 -0.047689043 -0.13476428 -0.205938 -0.060362495 0.060376547 -0.20863926
0.05779061 0.098033704 0.08829786 0.18811066 0.08626554 0.06895718 -0.07913225 -0.08766445
0.08560363 0.04067249 -0.04138946 -0.1645791 -0.03500677 0.014256737 -0.013762736 -0.0788856
0.03138887 0.041695908 0.060621414 -0.054711755 -0.053538106 -0.06754894 0.017625917 -0.16672751
0.127066 -0.11155156 -0.0043870914 -0.014091035 0.1460396 -0.084927924 -0.15645373 0.049767323
0.036357187 0.030520212 -0.119013615 -0.07814318 -0.15245895 0.0007617058 -0.12786649 0.04772448
-0.10918354 -0.1556131 -0.05074868 0.019013159 -0.033148747 -0.12726513 -0.09234132 -0.09123336
0.17509359 0.020259937 0.16183427 -0.055882428 0.07835181 0.004031741 -0.05622688 -0.08963884
0.05436436 0.11962306 -0.0040425654 -0.04857678 0.15417925 -0.11898256 0.015378284 0.15092894
-0.13302976 0.18305197 0.030057147 0.03213433 -0.078852795 -0.0075519597 -0.005437862 0.049660623
0.04380532 -0.11139367 0.15938666 -0.1500088 -0.07578619 0.13549177 0.1444384 0.010537344
-0.05036497 -0.053220198 0.17945944 -0.18473831 -0.14769179 -0.17687728 -0.03079123 0.033041358
0.016406255 -0.15020193 0.09828408 0.14225867 0.15481758 -0.021239966 0.00720503 -0.15108524
-0.050880603 0.0435627 0.014610025 -0.024258163 -0.052359365 -0.02437907 0.19418386 -0.16098619
-0.12738582 -0.014462857 0.14144772 0.13807262 0.12314739 0.11167709 0.016902264 0.018021932
0.05073082 0.11415066 0.08629936 0.06728442 -0.02887049 -0.13690202 0.017285155 -0.013646207
0.10396379 -0.017847585 -0.0027225157 -0.112642035 -0.0936316 -0.05975027 0.12676527 -0.017165516
-0.13176154 -0.018173909 0.010311207 -0.06722071 0.061478276 0.06603527 0.10572375 -0.12454357
-0.0070781615 0.09550136 0.085376516 -0.056095988 0.019886753 -0.06384328 -0.059431028 -0.08897437
-0.09654311 0.118390165 -0.035280943 0.09672157 0.13387686 -0.050333094 0.018777212 0.12405043
-0.017252872 0.13535006 -0.08218362 -0.030236294 -0.030232526 -0.014640728 0.095812134 -0.029752139
0.061231364 -0.069485106 -0.043804895 0.18525957 -0.16860542 -0.043769505 -0.08530713 -0.23802266
-0.22369656 -0.20860161 -0.02137731 -0.026614454 0.042782657 -0.062093835 0.21048453 -0.104335755
0.20947598 0.122953914 0.2567028 0.24138737 -0.2290501 0.28513327 0.03136158 0.057713788
-0.043629795 -0.13409325 -0.13303855 0.14668582 -0.14264186 -0.047700517 -0.1357067 -0.12432811
0.022421481 0.014919106 -0.24056917 -0.034106467 -0.19875328 -0.036175992 0.12732519 0.028596785
0.19702098 -0.17656676 0.045130305 -0.0067520817 0.16053988 0.006718467 -0.3110784 0.012459161
0.22858064 -0.031087525 0.006531622 -0.13125163 -0.047316883 -0.094999224 -0.11935091 0.1440607

lstm.bias_ih_l0 f4 [200]
00000000: 1b00 c3bd bc8e bf3d a6d1 0fbc 363f 06be
00000010: ef39 b03d ab2a 153d 7936 f33d d66a 5e3d
00000020: e31c c63d 4fad 61bd fc47 3b3e d877 ae3c
00000030: 716d 253d da4e f43d f37e f73d ccd6 16bd
00000040: b4e5 bd3c 40ce 31bd 20d0 e3bc 3971 5c3e
00000050: 3a76 a7bb 8857 273e 3fec b33d 0e18 583e
00000060: 6cf0 973c 9cb4 51bd e387 9d3d 0f0f b9bb
00000070: 9760 1e3e d3d1 523d d357 d23d 74d9 893a
00000080: f645 a5bc a01e 6cbd 1e06 703b 6fef d13c
00000090: 22a0 89bd a4e1 e43d b88c 363c 320d d2bd
000000a0: 2272 193d b0ee 3d3c cec4 a33c eeb1 7d3e
000000b0: 5397 503d 244f eabc 3259 023e 44b3 e23d
000000c0: 8a89 dcbd e18b d43d 6827 d93c f88b 70bd
000000d0: 0964 eb3d 22f2 963d 66c7 4c3e 13c8 61bd
000000e0: c66c 693d c2b3 1fbd a29e a1bd d876 74bd
000000f0: 7099 f2bc 7cdb bcbd f1a6 e73c efb7 ddbd
00000100: e3c3 3dbd fb4f 55bd 6bb2 ff3c d111 cf3c
00000110: babe b33d ab68 f1bc 49e8 c03d f2f4 d93a
00000120: c046 c33d eeab 943d 87d7 a23d a248 24bd
00000130: 72f9 c63d 5961 c33c 866f cf3d 25ac 0fbd
00000140: 5370 79bb 4c3c e33d 74b6 913d ce41 a03d
00000150: 49cc e6bd b33b e03d 7fab babc 5b55 adbd
00000160: 5b4f 113e 86f2 803d 6175 0e3e 370c a13d
00000170: 6a1c 043e 1ca6 943d 440a 583d 2f0e 2bbd
00000180: b3f8 b33d 26a6 76bd e24b c1bd a94e 32ba
00000190: eaf0 253c f82f 0f3d e0fd adbd 25c0 273d
000001a0: f5ce 203d 3983 e0bd b6d5 c6bc 279b 6ebd
000001b0: 3a52 133e 90a5 bebd 9a3b dbbd bb05 7bbd
000001c0: cce3 f8bd 15f8 07be e4c2 c8b9 9032 7cbd
000001d0: ef4c 163e b9a3 c63d 1c8f c43d 8035 c43d
000001e0: c4d9 173d 31f1 cc3d 7b26 7a3d ebb4 80bd
000001f0: 6a24 cdbd e2ec d33a b2a5 edbd cab2 123e
00000200: 9335 86bc 84a5 a8bc 4ef6 eebd 37a3 c7bd
00000210: 9432 543d daf6 b1bd 17c8 6cbd 61cb 08bd
00000220: 4c24 babd 543a d8bd f41b a9bc 2ab7 f53d
00000230: 259b 123d c40a d33d 2c3d 07bc bd6f cc3b
00000240: fb80 0f3d fdde 87bc 632b b7bd 6c3e 123e
00000250: fc1a a23d d12c 79bd d981 acbc c8f0 88bd
00000260: ba59 a43d cca6 3fbd 0e36 6a3e 4e27 a43b
00000270: 52eb e43d f163 05be 5326 be3d 34be 43bb
00000280: 5f49 913d 6021 dfbd 838a 95bd cf74 1d3d
00000290: 3016 a23d bc81 8fbd be4c db3c f336 d338
000002a0: 284b 093b 67ca 2e3e 0a03 e73c 2cc1 813d
000002b0: a122 a33c d026 303d 1553 e5bb ff29 63bb
000002c0: 88de eb3d ed2f c6bc be08 dc3d ec51 4bbd
000002d0: 2640 a53d d9f2 363d fe85 2e3e e12a 7b3d
000002e0: 894e 9c3d 4bd2 2e3e abb5 233e 4e21 913d
000002f0: 2860 d7bb 764f c93d b9c8 e13d f440 1f3e
00000300: f1b4 9a3d 0bc8 093e cf28 4b3e b03e a73d
00000310: 75bd 643e 3b65 c1bd b108 133d 103f 973d
-0.095215045 0.09353396 -0.008778011 -0.1311005 0.086048 0.036417644 0.11875624 0.054301105
0.096734785 -0.05509692 0.18289179 0.02129738 0.040387575 0.11929102 0.120847605 -0.03682594
0.02318082 -0.043409586 -0.027809203 0.21527566 -0.0051105293 0.16341984 0.08785295 0.21102926
0.01854726 -0.051197633 0.07691934 -0.005647547 0.15466534 0.051469635 0.102706574 0.0010517077
-0.020174962 -0.057646394 0.003662474 0.025626866 -0.06719996 0.1117585 0.011141948 -0.10256423
0.03746236 0.011592552 0.019991305 0.24774906 0.050925564 -0.02860219 0.12729338 0.110693485
-0.10768421 0.10378242 0.026508048 -0.058727235 0.114936896 0.07370402 0.1999794 -0.055122446
0.0569885 -0.03898979 -0.07891585 -0.05968365 -0.02961418 -0.09221551 0.028277846 -0.10826098
-0.04632939 -0.05207823 0.031213006 0.02527705 0.087766126 -0.029468855 0.09419305 0.0016628786
0.09534979 0.072593555 0.07951265 -0.04010833 0.09715547 0.02385013 0.10128693 -0.03507628
-0.0038061335 0.11095485 0.07114878 0.07825051 -0.11269433 0.10948887 -0.022786854 -0.08463546
0.14190428 0.06296258 0.13911964 0.07863658 0.12901464 0.07258245 0.052744165 -0.041761573
0.0878767 -0.060217045 -0.094383016 -0.00068018824 0.010128239 0.034957856 -0.084956884 0.040954728
0.03925987 -0.10962529 -0.024271827 -0.058253434 0.14386836 -0.09308922 -0.107047275 -0.061284762
-0.12152824 -0.1327823 -0.00038292177 -0.061571658 0.14677785 0.09699196 0.095976084 0.09580517
0.03707291 0.10006941 0.061071854 -0.06284507 -0.10016711 0.0016168619 -0.116038695 0.14326015
-0.016382968 -0.020586737 -0.11668073 -0.09747928 0.051806048 -0.08689661 -0.057808008 -0.033397082
-0.09088954 -0.10558 -0.020643212 0.119978264 0.03579249 0.10304788 -0.008254331 0.006238906
0.035035115 -0.016585821 -0.08943822 0.14281625 0.07915303 -0.060833756 -0.02105801 -0.066865504
0.080249265 -0.04678993 0.22872183 0.0050095683 0.11177696 -0.13026406 0.092846535 -0.0029868009
0.070940726 -0.10895038 -0.0730181 0.038441475 0.07914388 -0.07007167 0.026769992 0.00010071499
0.0020949338 0.17069398 0.028199691 0.06335673 0.019913973 0.043005764 -0.0069984295 -0.0034662483
0.11517054 -0.024192775 0.10743855 -0.049638674 0.08068876 0.04466519 0.17043301 0.06132019
0.07632167 0.17072408 0.1598727 0.070864305 -0.006572742 0.09829609 0.11024613 0.15552121
0.07554043 0.13455217 0.19839786 0.081662536 0.22337897 -0.09443136 0.03589696 0.07385075

lstm.bias_hh_l0 f4 [200]
00000000: 1313 8ebd 3777 9a3d d07c 273e 738c 763d
00000010: 319c 6a3e 0aae 503d 6a20 843d 0937 77bd
00000020: 50e2 1b3e 1219 113e 13b7 cf3d dac2 cabd
00000030: 434a 643d a3cf 0c3e a342 033c 9f7f 9ebd
00000040: 9e23 7fbd 259e 483c 2cc9 b7bd 013a 6e3e
00000050: 2f99 843c 6296 1b3d fea4 e93d cb68 003e
00000060: a26f 77bd ed3f 1b3e ac0a 2ebd 1c16 0f3d
00000070: 8a6e 8dbc a6cf dbbd db51 2a3e 889e 763d
00000080: 6c7d 263d 6b65 373d e539 97bd 6128 17ba
00000090: 4850 98bd ab6c e93d 4e31 e23d 205e c1bc
000000a0: 9547 5dbd 6bdd 093d 67d0 903b 9648 7a3d
000000b0: 2424 533e 35c8 113a e176 2b3e 375e 8dbd
000000c0: bbc5 053e 04ee 4ebd c193 883c dd48 dcbd
000000d0: aedf 023d c4a5 6a3b 116c e2bc 1b83 713d
000000e0: 46a6 0dbd c063 fabd 2ce4 153d c21f 923d
000000f0: 561e 023e 1107 b83d c274 743d cbfc a33d
00000100: 852b bebd 19b3 383d 9685 50bd 11fd 0c3e
00000110: eb07 2cbd 7026 1a3e 33fe 5c3c 26bf 643c
00000120: 523d 68bc 6af7 053e e35d edbd 20d1 d1bd
00000130: 1826 c0bd 0069 373d 6219 393e 8f03 d53d
00000140: 8fb6 913c cddc d1bd 9449 013e 1c0b 0b3c
00000150: e27e 343d 67cd b63c e15c db3d 92ee 0b3d
00000160: 3c74 f5bd e6be 0c3e 71b7 e63c 37df d93d
00000170: cc87 acbd 84aa f73d 2fcc 293e 4f0e dfbd
00000180: fea6 e6bc ff15 a83c 7f4a eb3d 4b07 043e
00000190: 6500 f23d 0501 a9bd 9053 d5bd 673e b93d
000001a0: aa0d 153e 3860 c7bb 4c8d dcbd c210 173d
000001b0: f59f 7ebd 0743 d0bd e61f 883c ad0c 07be
000001c0: d8f8 ec3d 0862 bb3d cca6 943d be6b 6cba
000001d0: 8e76 37bd eec4 5fbd 3d5c dabd 21c8 ff3d
000001e0: 54e0 d63b 7712 ab3d 6b26 87bd d901 b53d
000001f0: f732 d0bd 14ee 5abc 9633 68bd d619 ba3c
00000200: 6ae8 973c 72ae 71bd 292b 883d 9ecd b53d
00000210: 97d1 cebd e882 bc3d bb28 103d c620 883c
00000220: dfb1 97bd fe90 7dbd 873f 5b3d e85b 6c3d
00000230: a31e 973d 9b89 bebd ed2f 26be 6821 c9bd
00000240: 9775 ddbd ba71 bbbd 58b5 b4bb c2ec f73d
00000250: ca0a e53d 9f28 e43d eecb 8ebd 864b 203e
00000260: 64e1 b13d 9101 0b3b d4b2 8a3e f773 363e
00000270: 793c e83c b49a 62bd 076f 84bc fc43 6a3d
00000280: 1ec6 053e 23b9 aebd 6d12 153b 7330 abbd
00000290: ca54 453e 4773 293d 0c42 2bbd 997e e8bb
000002a0: a7a1 023e b8a4 0e3e fdec 8a3d c189 a43d
000002b0: 903d 953c 18dd 933d 8656 133e ca8d 353e
000002c0: 91c8 cbbd 3e48 edbc 9ae6 833d e822 c93d
000002d0: a9d7 853e b853 6a3c 3fed ae3c cd21 223e
000002e0: 82e9 9a3d 7293 bb3d 7bab 34bc b6a9 8b3d
000002f0: f497 99bd 3379 6ebd b362 a73d 3679 0bbc
00000300: 5417 773d d396 1d3e baa1 f83d eea1 913c
00000310: d9d7 f13d 9299 8d3d 6b42 4f3d a408 e8bd
-0.06937232 0.0754227 0.16356206 0.060192537 0.22911145 0.050947227 0.06451495 -0.06035522
0.1522305 0.1416972 0.101423405 -0.09900446 0.055734884 0.13751082 0.008011493 -0.077391855
-0.062289827 0.012244736 -0.08973917 0.23264314 0.016186325 0.037985213 0.11408423 0.12539975
-0.060409196 0.15161105 -0.042490646 0.034933195 -0.017264623 -0.10732965 0.16632788 0.06020978
0.040646955 0.044774454 -0.073840894 -0.000576621 -0.074371874 0.1139768 0.110445604 -0.023604453
-0.054023344 0.033658426 0.0044193747 0.06110438 0.20619255 0.0005561144 0.16744567 -0.06902736
0.1306371 -0.05051996 0.016672017 -0.10756085 0.0319516 0.003580437 -0.02763942 0.058962923
-0.0345824 -0.12226057 0.036594555 0.071349636 0.12706885 0.08985723 0.05968166 0.08007201
-0.092856444 0.045092676 -0.050908647 0.13768412 -0.04199974 0.15053725 0.01348834 0.013961589
-0.014174776 0.13082662 -0.11590173 -0.102449656 -0.09382266 0.04477787 0.18076089 0.104010694
0.017787246 -0.102471925 0.12625724 0.008486535 0.044066317 0.02231474 0.107110746 0.034163065
-0.119850606 0.13744697 0.028163644 0.10638278 -0.08424339 0.1209307 0.16581796 -0.10891401
-0.0281558 0.020518301 0.114888184 0.12893407 0.118164815 -0.082521476 -0.10416329 0.090451054
0.14555994 -0.006084468 -0.10769138 0.036881216 -0.062164266 -0.101690345 0.016616773 -0.13188429
0.11570901 0.09149557 0.072583765 -0.00090187404 -0.044790797 -0.054631166 -0.10662124 0.124893434
0.0065575037 0.08353131 -0.065991245 0.08838243 -0.10165971 -0.013362426 -0.05668982 0.022717398
0.01854344 -0.059004255 0.06648857 0.08877109 -0.1009857 0.09204656 0.035195094 0.01661719
-0.07406973 -0.061905853 0.05352738 0.057704836 0.0737889 -0.0930359 -0.1622922 -0.09820825
-0.10813444 -0.09152551 -0.005514782 0.12105705 0.111836985 0.1114056 -0.0697249 0.1565381
0.08685568 0.002121065 0.2708956 0.17817675 0.028349148 -0.055323318 -0.016166223 0.05719374
0.13063857 -0.08531406 0.0022746578 -0.0835885 0.19270626 0.041369703 -0.041811034 -0.0070951697
0.12756978 0.13930023 0.06783483 0.08034087 0.018217832 0.07219905 0.14388475 0.1772987
-0.099503644 -0.028965112 0.06440468 0.09821111 0.26141098 0.014302187 0.021353362 0.15833206
0.07564069 0.09158982 -0.011027212 0.06819479 -0.07499686 -0.058221053 0.08173122 -0.008512786
0.06032498 0.15389566 0.12140222 0.01777741 0.11808748 0.06914057 0.05060045 -0.11329773

lstm.weight_ih_l0_reverse f4 [200, 3]
00000000: e1f3 a7bc 026b bb3d ac13 ed3c 6b5e ee3d
00000010: 6ba2 8c3e eaa3 d33d 6ef4 4d3e 573a 7d3d
00000020: 2475 8bbc 906f 0d3e 285b 3abd 6a8e 85bd
00000030: 7f3f 8b3c 69bf fb3d a921 6c3e 9c4e 203e
00000040: a4e1 82bc 41ee 073e 42a4 963c 0d83 2abd
00000050: c761 1b3e cbf0 08bb 62f8 2d3d 211b 193e
00000060: 2dcd 283d b78f 74bd c588 343e 214b 05bc
00000070: dc9a b5bd 039c 053e 5945 133e 0390 fb3d
00000080: 7030 e83d a9d8 ad3d 8c14 f93d ad6a 203d
00000090: d3d0 d03d a82c 2f3d 9ca1 553e a724 3a3e
000000a0: 13a4 a83c 322d 123c e3b0 843e 3fc9 843e
000000b0: c86c 713e dace 62bd b8fe 673c 8ca8 d13b
000000c0: 3b65 3cbd e3b3 08bc 131f 323e 0a9b c63d
000000d0: dc7b a13d 9737 a83d e574 e9bc 1646 66bd
000000e0: d26e 293e 789c 5b3c 3fbd e73d da00 2f3c
000000f0: efef 2d3c 6200 253e d4eb 2a3e 8bef 1cbe
00000100: 9526 273b a45f 4cbc 13c5 1abe 153d 94bc
00000110: de44 6fbd db1f 203e 9bd8 e13d f1ee 223e
00000120: e092 7ab9 a520 0c3c ef25 473d 7ded 35bd
00000130: fca1 09be 73cd f33d e28d 293e 715f 873d
00000140: bcd1 d63d 240d 17be e828 033e 953c 3fbd
00000150: dd7e febc de73 5b3e 4e62 233e 4fe4 043d
00000160: a827 de3d 85ca 713c c39b 01be 92ee 62bd
00000170: fbcc d93d 1f47 d4bc 35e3 ec3d ab92 063e
00000180: fb32 3d3d 4da8 c43b 4b0e 033e 5d13 0d3c
00000190: 74b5 193d a7eb a73d 0695 243e 4801 dcbc
000001a0: a56c ac3d 5552 b33d 958c cbbc 0be6 e3bc
000001b0: a2c3 4c3e 1377 0f3e 058d acbd e420 52bd
000001c0: 2de2 9ebd b94d 513e 2bb3 aebb 98e0 c53d
000001d0: 25b6 f93d 43ad 483c 7d4e 293e f611 72bd
000001e0: dad2 3bbd e3ae 91bd 0ecd 4a3d 67bb e03d
000001f0: 8233 dbbc 9ea3 82bd 8e18 943e e918 6b3e
00000200: 33b0 4b3e ad6d cf3c 8c96 bf3c fe58 003e
00000210: a081 083e 76c9 263e 21f8 0f3d 2651 a23c
00000220: f533 d23c f729 b83b 299d d03d d24e 2cbd
00000230: 0fa8 93bd c64c 433e 51e0 033e d511 993d
00000240: e12e a33d d60f e63d 6cae 2dbd b77a 1c3d
00000250: 8de1 cbbd bb7d 8fbc 631f b13d d691 debd
00000260: dc58 12bd 511a 8b3e db8f 243d e4b0 d13d
00000270: 9f68 493e b286 f6bc 8c67 9cbc d6fe 603d
00000280: 7b30 ba3d 3d77 07bb 2863 ee3c c58b 893d
00000290: f28f 813e cc6b 223e dac1 af3d 5fa3 b83d
000002a0: f2cf 0ebd 6d7d c9bd fee6 0e3e 8ee1 343e
000002b0: e037 0b3e d4f7 743b dd49 293e b0fc 66bc
000002c0: 5519 db3d bcce 46bd ad4f 28be 3015 fb3d
000002d0: f727 ba3d b1db 93bd 14ad aa3d 8099 8dbc
000002e0: 86d4 bcbd 6bb8 b6bd 53b9 0c3e 107a ab3c
000002f0: 70ec a3b9 1279 ca3d f11e 36bd 7093 1c3e
00000300: fd26 d83c b9af 193e 3631 db3d 508f 8d3d
00000310: f85b 4dbd fcd4 08bd 99e1 993d ed0b aa3d
00000320: 088a 8fbd 6d98 be3d 15a5 25bd d26d c4bd
00000330: 0e2f 7dbd 3edc f6bc 9645 a63d 7639 fdbc
00000340: ae2b a43c 3e4a 60bd 3230 d13d 7013 8bbb
00000350: de22 fdba bb97 093c 831d 493e f444 d33c
00000360: b924 8a3c 20e2 1f3e a153 09be e74b da3d
00000370: d49e 5dbd 8ab2 e03d 8f94 7e3d 53af bdbd
00000380: 3ce1 0d3e 8a86 e7bc 8f33 1cbe db07 6abd
00000390: f438 4e3e 4cdf 6a3e ac7f 843e 8d65 9e3d
000003a0: 99bd 11be 6aad 053e b1be 24bd 0abd 4b3d
000003b0: 2f20 803e 9d66 483e b5df 16bb 3d0f 263e
000003c0: 8833 56bd 68d6 0bbe 2ce5 b7bd 464e fdbd
000003d0: a445 883d 16ec acbd 22cf f03d 90da 9cbd
000003e0: a573 3f3d 31ff ad3c 7fdb ed3c 1afc 17bd
000003f0: 0120 8f3c 86ae 3a3d 3745 4d3d d030 cd3d
-0.020502033 0.091512695 0.028940044 0.116391025 0.27467665 0.103339985 0.20112774 0.061823215
-0.01702363 0.13812089 -0.04549709 -0.06521304 0.01699805 0.12292368 0.23059715 0.15654987
-0.015976734 0.1327448 0.018388871 -0.041628886 0.15174018 -0.0020895477 0.042473204 0.14951755
0.041211296 -0.05970737 0.17630298 -0.008135588 -0.08867428 0.13047795 0.14381923 0.122833274
0.11337364 0.0848859 0.12162122 0.039164234 0.1019608 0.042767197 0.2086243 0.18178044
0.02058605 0.008921908 0.25916204 0.2593479 0.23576653 -0.05537305 0.014159851 0.006398266
-0.04599498 -0.00834367 0.17394666 0.0969754 0.078849524 0.08213728 -0.028498122 -0.056219183
0.16546181 0.013404004 0.11315393 0.010681355 0.010616287 0.16113427 0.16691524 -0.15325753
0.0025505174 -0.012473974 -0.1511424 -0.018095532 -0.058415286 0.15637152 0.11027642 0.15911461
-0.00023896573 0.008552705 0.04862016 -0.04441594 -0.13440698 0.11904421 0.1655803 0.06610001
0.104892224 -0.14751107 0.12808573 -0.046688635 -0.031066353 0.21430919 0.15955469 0.032444295
0.108474076 0.014757757 -0.12657075 -0.0554033 0.106348 -0.02591282 0.11566774 0.13141887
0.046191197 0.0060015083 0.12798421 0.008610574 0.037526563 0.08199244 0.16072473 -0.02685608
0.0841916 0.08755938 -0.024847308 -0.027819654 0.19996503 0.14010267 -0.08425335 -0.0513009
-0.07757983 0.20439805 -0.005331417 0.096619785 0.121929444 0.01224834 0.16533847 -0.05909916
-0.04585538 -0.07113435 0.04951196 0.10973244 -0.02675796 -0.06378864 0.28924984 0.22958721
0.19891433 0.025320852 0.023387216 0.12533948 0.13330698 0.16287789 0.035148744 0.019814085
0.02565954 0.005620237 0.10186226 -0.042067356 -0.07209789 0.19072255 0.12878539 0.07474104
0.07967926 0.11233489 -0.04240267 0.038202967 -0.0995513 -0.017516008 0.08648565 -0.1086766
-0.035729274 0.27168515 0.040176254 0.10238817 0.19668816 -0.030093525 -0.019092344 0.05493053
0.09091278 -0.0020670437 0.029100016 0.06716112 0.25305134 0.15861434 0.08581896 0.090155356
-0.03486628 -0.09838376 0.13955304 0.17664167 0.13595533 0.0037379162 0.16532083 -0.014098331
0.10698191 -0.048537 -0.16436644 0.122599006 0.09089654 -0.07219637 0.08333793 -0.017285109
-0.09220223 -0.08921894 0.1374257 0.020932227 -0.00031265942 0.098863736 -0.0444631 0.15290618
0.026385779 0.15008439 0.107027456 0.069121 -0.050136536 -0.033406243 0.075137325 0.08303056
-0.07008749 0.09306417 -0.040440638 -0.09591259 -0.061812453 -0.030134317 0.08118741 -0.030911189
0.02004036 -0.054758303 0.10214271 -0.0042442605 -0.0019312759 0.008397992 0.19640164 0.025789715
0.016863214 0.15613604 -0.13410808 0.106590085 -0.05410655 0.109715536 0.062153395 -0.09261956
0.13855451 -0.028262395 -0.15254043 -0.057136398 0.20138913 0.22936743 0.25878656 0.07734213
-0.14232482 0.13054433 -0.04022092 0.04974083 0.25024554 0.19570394 -0.0023021523 0.1621675
-0.052295238 -0.13656008 -0.08979258 -0.12368445 0.06653908 -0.08443467 0.117582574 -0.07658875
0.046741147 0.021239849 0.029035328 -0.037105657 0.017471315 0.045576595 0.050114837 0.10019076

lstm.weight_hh_l0_reverse f4 [200, 50]
00000000: 64f3 e53c de85 f93d 4bb0 1fbe 4fa0 cabb
00000010: a039 583d 03b9 bf3d 4370 32bd 13c4 02be
00000020: 4701 123e 7eef 8c3d cfc4 433d 7d37 493d
00000030: 904d f1bd d193 7f3d 53fe 90bd b089 c43d
00000040: d8da f1bb 5594 09be 5add 06bd 83f8 2dbd
00000050: ab82 c4bd f256 033d d4c6 dfbd 549b 83bd
00000060: 6fcc 183e 4fb2 e33d 94a5 a7bd 3eee 903a
00000070: 9762 ce3b 2335 313e dc00 efbd dc96 d7bd
00000080: 5ee3 1b3d 73c6 c7bd 14ca bf3c 4eab c8bd
00000090: 4b93 9dbd b1ae 56bd e36a 023e 13a9 83bd
000000a0: db49 d4bd 3c41 b7bd f612 c33d 919b c3bd
000000b0: 53e0 56bd 8755 cd3c c87d 0bbd 9d84 22be
000000c0: ee26 fabd 5dd1 f9bc 2e92 eebd 8565 b1bd
000000d0: 1ef6 78bd 3e2f 883d 114e 623e 949c 5a3e
000000e0: c0a6 c6bc 7650 1fbe becb e03d 6ddb c93d
000000f0: 201c cabd 8c56 403e 213b 3d3e 1492 d5bc
00000100: e953 563e c248 4abe 67b6 743e 621e acbd
00000110: 1cc9 193d cc9f 2dbe 2780 89bd 143a 663e
00000120: 1f42 e5bd 4b2f 8c3e ecf5 393e b8a8 f0bd
00000130: bb82 413d cef7 d5bd 61a5 033e 00fa fb3d
00000140: a572 323e 5c6f 11be 8e5c 72be 0607 aabd
00000150: 190a 7b3e ed71 79be 4537 433e 976e 143e
00000160: 549a 023d 804c 10be 1426 93be 72fc b9bd
00000170: 5bd1 98bc 4297 82bd be83 02bc 2df6 3d3e
00000180: c274 463d 60e7 3bbe 67eb 85bc 42bb e3bc
00000190: 0560 103d 5926 503e e5e6 18be b2b4 463d
000001a0: 80bf ed3d 00c7 b03d 96ba bbbc aeca 35be
000001b0: 22ab 353e dc1a 35bd e998 313c 0b4e 013e
000001c0: 8c97 0a3e 0759 013e 71e4 423d 1ba7 e3bd
000001d0: d3b0 313e 158f a3bd 63d6 3f3e f67a 79bd
000001e0: bda0 cb3d 90f4 0c3b 8124 14be 32b3 9b3d
000001f0: 6433 f53d 658f 483d 0aca 75bd bcdf debd
00000200: c7e7 44bd e5e3 ed3d 2a60 a53d efa4 b1bd
00000210: 26ba ebbd 3d11 03be d825 50bc a619 66be
00000220: d689 ec3d 249f ed3d 5788 0a3e e05d aa3c
00000230: 4685 29be f72e 933d f56e d4bd 6554 2fbd
00000240: fe4d c53b 7db3 943c e022 463e 439d 39be
00000250: ff39 b6bd b451 88bc 47ba 81bd 070e 1bbd
00000260: 65d8 ddbd 7907 b1bd f5cd aebd d8f4 e93d
00000270: 7836 e4bd b139 eabd 1d18 a23d 5050 753d
00000280: 98fc d7bd 1872 0c3b dfb2 6d3d e764 7f3d
00000290: 651a fb3d 7fb7 cbbd 0b0c 5e3c 1959 72bd
000002a0: bb9a 0f3e b8cb a83c be89 fbbd 8caf c0bd
000002b0: d907 f2bd f2af f73d 6ab9 b13d a510 763b
000002c0: f5ac b0bd 9f90 81bd 421a d3bd 0bd6 7bbd
000002d0: 1dee 143c 425f 923c ea25 0ebe 4605 06be
000002e0: 6089 61bd b427 00be b550 98bd d882 593d
000002f0: cc70 a33d 4608 0c3d 92e1 153d 62d6 20be
00000300: 5aa7 093d 4a81 22be 8f2a 9fbc 4ef4 5bbd
00000310: 76da f43d 28f5 26bd e490 0c3e 0838 7b3b
00000320: e1a8 f4bd e6b9 6c3c 7627 90bd 6261 b5bd
00000330: 74df 7e3d eb71 2abd a1e7 1b3d 8466 02bd
00000340: 736d 65bd a061 c53d 3ac8 31bd 6fc9 853d
00000350: 853b 963d fc9f c7bb 4ce9 83bd 005a b4bd
00000360: e72a a2bd 3503 0ebd 800a 83bc 4183 8fbd
00000370: c1c6 acbd 7eb6 693d f281 2abd d786 f33d
00000380: 9377 21bd 1a77 ee3d 7837 35be ec60 133d
00000390: 2cde 053e c9da ef3d b3ca 7ebc 885e 9dbd
000003a0: 2ec0 66be 3f86 063d ae1e 903d 28e4 1ebe
000003b0: b980 a1bd 2bb2 783d b486 c83d 8328 4dbe
000003c0: f18b 33be 5574 8d3d 220c 7bbe c2e5 8a3c
000003d0: 45a4 6b3e 673c 173d 9498 8ebd 04f9 ad3d
000003e0: 0009 ca3d 0518 2dbd 7173 d2bc bcd3 38bd
000003f0: 4102 c6bc 8317 b73d 57d6 483a 9240 223d
0.02807016 0.12183736 -0.15594594 -0.006183661 0.05278933 0.0936146 -0.043564092 -0.12770109
0.142583 0.06881617 0.047795113 0.049125183 -0.11782372 0.062396828 -0.070797585 0.09596574
-0.0073808245 -0.1343549 -0.03292594 -0.042473327 -0.095952354 0.03206534 -0.10926595 -0.06426111
0.14921735 0.11117994 -0.081858784 0.001105733 0.006298374 0.17305426 -0.11670086 -0.10526821
0.03805863 -0.09754648 0.023411788 -0.09798299 -0.076941095 -0.052412692 0.12736087 -0.06428733
-0.10365649 -0.08947989 0.09525101 -0.09551156 -0.052460026 0.025065197 -0.0340555 -0.158709
-0.122144565 -0.03049534 -0.11648975 -0.086619414 -0.06078159 0.06649636 0.22100092 0.21348792
-0.024249434 -0.15558037 0.10976361 0.09856305 -0.09868646 0.18783015 0.18479587 -0.026070632
0.20930447 -0.19754317 0.23897706 -0.084042326 0.03754531 -0.16955489 -0.06713896 0.22483093
-0.11194252 0.27379832 0.18160218 -0.117509305 0.047243815 -0.104476556 0.12856056 0.12303543
0.17426546 -0.14202636 -0.2366812 -0.08302121 0.2451557 -0.24359865 0.19064052 0.14495312
0.03188546 -0.14091682 -0.2873999 -0.09081353 -0.018654516 -0.063765064 -0.00796598 0.1855094
0.048451193 -0.18349981 -0.0163476 -0.027799252 0.03524782 0.20327128 -0.1493183 0.04851217
0.11608791 0.08631706 -0.02291612 -0.17753097 0.17741063 -0.04421507 0.010839679 0.12627427
0.13534373 0.12631617 0.04758114 -0.11115857 0.1735261 -0.07986275 0.18734126 -0.06090828
0.09942768 0.0021508075 -0.1446705 0.07602538 0.119726926 0.048964877 -0.060007133 -0.10882518
-0.048072603 0.11615733 0.080749825 -0.08674037 -0.11510114 -0.12799545 -0.012704335 -0.22470722
0.115497276 0.11602619 0.13528572 0.020796716 -0.16554746 0.07186692 -0.10372726 -0.042805094
0.0060212603 0.018151993 0.19349241 -0.18126397 -0.088977806 -0.016640522 -0.06334358 -0.037855174
-0.108322896 -0.086440034 -0.08535377 0.11423653 -0.111432016 -0.11436785 0.079147555 0.059891045
-0.10546225 0.002143031 0.058031913 0.062352087 0.12260894 -0.099471085 0.013552676 -0.059167
0.14023869 0.020604953 -0.122821316 -0.09408483 -0.11817903 0.12094106 0.08677943 0.0037546542
-0.08626739 -0.063264124 -0.10307743 -0.061483424 0.009089974 0.017867688 -0.1388165 -0.13087949
-0.05506265 -0.12515146 -0.07437269 0.053103298 0.07980499 0.034187578 0.036592074 -0.1570678
0.033606865 -0.15869632 -0.019429473 -0.053699784 0.119557306 -0.040761143 0.13727146 0.0038332958
-0.119462736 0.0144486185 -0.070387766 -0.08856465 0.06222482 -0.041612547 0.038062695 -0.031836048
-0.056012582 0.09637761 -0.04340384 0.06532561 0.07335571 -0.0060920697 -0.06440982 -0.08806229
-0.07918339 -0.034671027 -0.015996218 -0.070074566 -0.08436347 0.057058804 -0.04162783 0.11890953
-0.039420675 0.116438106 -0.17696941 0.035981104 0.13073033 0.11711652 -0.015551257 -0.07684046
-0.22534248 0.03284287 0.07037102 -0.15516722 -0.0788588 0.06071679 0.097913176 -0.20034985
-0.17533852 0.06906954 -0.24516347 0.01695526 0.23011883 0.03692284 -0.06962696 0.084947616
0.09864998 -0.042259235 -0.025689812 -0.0451238 -0.024170997 0.089400314 0.00076613337 0.03961236

lstm.bias_ih_l0_reverse f4 [200]
00000000: e09a 8a3a 2413 5f3d 439a 903d 4993 263e
00000010: d6ea a83d 536d 853d 8ea4 65bd 6878 003d
00000020: 18ac f3bd 8373 84bc 4234 b6bd d453 ba3d
00000030: c659 073d 5e44 0b3d 731d 053d 03d7 bd3d
00000040: 8784 e1bc 5b28 1d3e 786e aebd b4aa c63d
00000050: 6681 8c3d afd6 8dbc b989 973d 56a5 853d
00000060: ba36 0f3c b5a7 3ebd 7f17 123e fd2d d83c
00000070: b32e cb3d 08d9 333d 95e8 8d3d d9af 7a3d
00000080: d637 d53d f1ea cc3c d216 603d 0ec5 16bd
00000090: 98b9 c8bd 978d 9fbd 7b71 5cbc 1c52 85bd
000000a0: 204f e8bc 9038 313d f5b2 a73d ebf1 233c
000000b0: 87ab a23d 6eb8 edbc 2e21 e23d 264b 013e
000000c0: 4e25 a13c 82d8 22bd 59be a03d bb75 c03c
000000d0: 3316 143e b645 e13c 8f5f 67bd 2e9c 2b3d
000000e0: 14e4 2d3b e60a c0bc d817 033e 8fd7 af3d
000000f0: 75c4 75ba 6fa0 fc3d e1b6 97bd 8d82 213e
00000100: b4e7 4f3e 7dbb 963d f996 043e 7dff 5bbd
00000110: 705c adbd 8b26 c03c 8ca9 33bc 46f3 83bd
00000120: 1e7c 23bc b1dc 823b fe74 f23d 4a2f 083e
00000130: 72f7 313e 16ed 163e e414 9f3d 0d3e e03d
00000140: 4d7c 053e fc2c 013c c4d4 6cbd 7673 373d
00000150: 0245 89bd e806 1a3e d20b bf3d 7e4c 1c3d
00000160: c079 79bd 9264 46bd c9e2 f63d 0567 753c
00000170: bea6 1c3e d6a4 173e b2d4 833e 530f 243e
00000180: 7069 51bb c074 703e a910 133e 3680 c63c
00000190: 3f80 7dbd 782f 8d3d 66b9 9fbd d9ec afbd
000001a0: 4d2a 14bd 3564 7a3c d168 f3bd 6b3b 90bd
000001b0: db2b e93b 3a7b cf3d 7fdc f8bd 8ff1 b13d
000001c0: 8a33 01bd 4ff6 df3d 34fc 5d3d ab1d f1bd
000001d0: 039d c23d 471e 8bbd 3a3a 053e 2ed7 0cbd
000001e0: d83a cebd 9532 f53d f416 9dbd 5ead dd3d
000001f0: dbc7 9abd b159 5eb9 ad43 973d 2fa3 4bbd
00000200: de59 92bd 4d68 51bd 9793 673d ac54 00be
00000210: 571b 3fbd 5b41 e03c 6069 f73d 6617 9e3d
00000220: 2aa9 2b3c 51d3 0a3e ab1d e13d 15f3 c1bc
00000230: 64cf ffbd 6f07 8dbd 80e4 d53d 9b0f c2bd
00000240: 9beb 77bd 8d32 603d 34f0 ee3d 0290 d8bd
00000250: 84f7 893c c123 ffbb 4f55 d8bd 0db7 743e
00000260: 3682 b6bc 24ce 103e 6386 c03d 88dd c83d
00000270: 0bb2 8fb9 94b9 19bd 6d62 573d 4477 44bd
00000280: 14fc fbbc 9840 e1bb a75d a2bd c47f 81bc
00000290: 351b fc3c d5f2 e1bd 789c bd3d b381 03bd
000002a0: fbdd 083e 4c90 d7bd 5fbf 92bb c2ef d1bc
000002b0: 7187 cebb 352f 6c3c 63cd 423d 54c8 4dbd
000002c0: 6699 8a3d a107 8d3d 6e2a d13d db59 f83d
000002d0: dbf7 483d 7fc5 243d e3da 643d ec0b 0cbd
000002e0: f1df 9f3d b0ed 163e 0461 d93d e34a a03d
000002f0: 358a b03d 574b 6fbd f1d4 51bc ea45 56bc
00000300: 6d43 273e b458 b03b 464e 803c 4e93 743c
00000310: 71f2 ee3d 344f 403e a540 4a3e 6ce0 acbb
0.0010574721 0.054461613 0.07060673 0.16267122 0.082479164 0.065149926 -0.056065135 0.03136483
-0.11898059 -0.016168362 -0.08896686 0.0909802 0.0330446 0.034000747 0.032498788 0.09269526
-0.027529014 0.15347426 -0.08517164 0.09700528 0.06860618 -0.017314283 0.073993154 0.06525676
0.008741075 -0.046546657 0.14266776 0.026389116 0.099210165 0.04390815 0.06929127 0.061202858
0.104110405 0.025014373 0.054709263 -0.03680902 -0.09801024 -0.07790678 -0.01345479 -0.06509802
-0.028358042 0.043266833 0.0818843 0.010006408 0.079428725 -0.029018607 0.11041485 0.12626323
0.019671109 -0.03975726 0.07848806 0.023493638 0.14461593 0.027499061 -0.056487616 0.04189699
0.002653365 -0.023442697 0.12802064 0.085860364 -0.00093752827 0.12335288 -0.07407928 0.15772457
0.20303231 0.07359979 0.12948216 -0.05371045 -0.08464897 0.023455879 -0.010965716 -0.06442885
-0.009978322 0.0039935936 0.11838721 0.1329929 0.17379549 0.14738879 0.077676564 0.10949335
0.13035698 0.00788426 -0.057820097 0.044787847 -0.06702615 0.15041697 0.093284264 0.038158886
-0.060907125 -0.048435755 0.120549746 0.014978175 0.15297982 0.14808974 0.2574821 0.1602147
-0.0031953715 0.23482037 0.14361824 0.024231058 -0.061889883 0.068938196 -0.07799034 -0.08590097
-0.036173154 0.01528268 -0.118852265 -0.07042583 0.0071158237 0.101309255 -0.12151431 0.08688652
-0.031543292 0.109356515 0.054195598 -0.11773237 0.09502604 -0.06792884 0.13010493 -0.0343849
-0.10069817 0.119725384 -0.076703936 0.10824083 -0.07557651 -0.00021204982 0.07385955 -0.04971617
-0.07146047 -0.05112486 0.056537237 -0.125323 -0.046656933 0.027374914 0.120806456 0.07719307
0.010477344 0.13557173 0.10991987 -0.02367548 -0.124907285 -0.068861835 0.104439735 -0.09475633
-0.060527425 0.05473571 0.11666909 -0.10574342 0.016841657 -0.0077862446 -0.10563146 0.23897953
-0.022278886 0.14141136 0.09400632 0.09807879 -0.00027407738 -0.037530497 0.0525841 -0.047965303
-0.030759849 -0.0068741553 -0.07928019 -0.015807994 0.030774692 -0.11032645 0.0925836 -0.032106113
0.13365929 -0.10525569 -0.0044783796 -0.02562702 -0.006302767 0.014415552 0.047559153 -0.050239876
0.0676754 0.06886221 0.10213171 0.121265136 0.0490645 0.04022741 0.05587281 -0.034191057
0.07806385 0.14739108 0.106142074 0.078267835 0.08620111 -0.05842146 -0.012807117 -0.013078192
0.16334315 0.005381668 0.015662324 0.014927698 0.11667336 0.18780214 0.19751222 -0.0052757766

lstm.bias_hh_l0_reverse f4 [200]
00000000: 4d57 babd 1627 c63d d246 633d 99a0 26bd
00000010: 81de 5b3c 2ac8 ef3d ef9b b63d 26ac 2c3e
00000020: 8c4c c7bd 90a1 debd fc5e 203e 199b ddbc
00000030: 0d84 8abd fd93 0c3e 6f92 cc3c a1f3 a6bd
00000040: dac3 363d 1098 1d3e a561 c93d 94bb a13d
00000050: 1b6b 253e b3a2 773d ad60 bb3d 0d74 f03d
00000060: be1e b03d f4f6 1e3e 7e06 703e 94e8 813c
00000070: e3ff 40bd f761 59bc 1165 ef3d 238c 63bd
00000080: 7a45 ac3d cc71 8a3d 8928 c8bc 54dd 433d
00000090: dcc5 113b bc3b 52bd a385 db3d 4b88 b73d
000000a0: eec4 35bd 4b13 12bc 1d7e d53d d377 e5bd
000000b0: b090 dc3d fbe3 443e 71df 313e d593 943d
000000c0: f277 e93d ed6f 483e 1969 9dbd 67f8 463e
000000d0: 26df b1bb 7def 193e 9e3c d33d c0d1 e53c
000000e0: 7202 c5bd 729e c23d 229c 3a3b 7e23 8c3d
000000f0: be25 823d afb3 a83d 8378 703d 4852 223e
00000100: ec6d d33d c10e 93bd abdf 5b3d 18b7 d93d
00000110: 3f01 4d3c 2ae3 803b 1b74 ad3d 4d20 c73c
00000120: e339 03bd 108d 68bd 5fb9 093e d6ee 063e
00000130: 1224 813e ba7a d73d bbeb 37bd c2eb 053e
00000140: d9a0 323c 1fd7 c83d 0ecd ca3d cc53 ffbc
00000150: 63cd 89bd 1204 8c3d 2700 a1bd 1f64 98bd
00000160: ee2a c1bd c27c 3bbd a10c c2bd 00d0 31bc
00000170: a391 f33d 42b9 183e a5b2 f13d 17b4 17bd
00000180: f0a4 ac3d 73be 383d 1b94 193e 0ee7 70bd
00000190: d9ed e9bd 898e b0bd 27f8 933d 95e6 e83d
000001a0: ef0f ee3d 5703 463c fe0c 0b3e 7f01 063d
000001b0: 4e9b 98bc f4f7 893d ad46 bcbc 9662 7c3d
000001c0: a1e5 aa3d 1b6a 293b a525 56bd 57c3 573b
000001d0: 0adf debd 96bf a2bd 7d31 343d 28e1 a4bd
000001e0: c4d8 603c 2e12 903d d369 2cbe f077 6fbc
000001f0: 7077 a63c 4e48 6bbd 6ff1 d139 a173 b6bd
00000200: 6069 cf3d 692b 5d3d 42e5 d43d 6528 4cbd
00000210: 27a1 74bc fbaa 99bc a653 583d 9281 48bd
00000220: f106 863d 703f b43d bbd7 71bd 67dd d7bc
00000230: 57ae c9bd dabf 9bbc 47e5 7e3d 4faa e5bd
00000240: ca86 31bd 431f b73c 9d26 923d ecea 133e
00000250: b322 56bc 94b7 06be 2f38 0a3d bfd2 8d3e
00000260: 9d0f 54bd 7261 0d3d 663b 843d 63a3 6f3d
00000270: c844 bcbd f03b 223e bd78 0a3e 5ad7 1fbc
00000280: 5c1d f2bc 3649 743d c89c 34bd 8ddc 2a3c
00000290: 51cf 1d3e 37d6 ea3d 4b63 953d 7129 d4bd
000002a0: a523 123e 9a7a 14bb 206d 05bb 7259 113c
000002b0: ef13 b6ba a735 98bd 3b05 2f3e 4b6c 873d
000002c0: fe56 323d 228a b73d 34fb 473e 2030 02bb
000002d0: de7f ef3d 9067 1b3c 82db 833d d905 9abd
000002e0: 4c57 f13d 0df3 b33d ef46 de3d 15e4 64bc
000002f0: f37a d53b a35b 253e b814 e5bd 3ad6 cbbd
00000300: c942 2e3e 9ff3 4c3d fb91 8c3e 0ac6 eb3d
00000310: fd37 80bc aa86 023c 0e1a 393e a993 51bd
-0.090986826 0.09675424 0.05548746 -0.0406805 0.013419748 0.117081 0.08916461 0.16862544
-0.09731397 -0.10870659 0.15661234 -0.027051495 -0.06763468 0.13728328 0.024972169 -0.08151937
0.044620372 0.15390038 0.09833077 0.07897106 0.16154139 0.060457896 0.09149299 0.11740885
0.085996136 0.15523893 0.23439977 0.015857972 -0.047119033 -0.013267986 0.11689199 -0.055553567
0.08411689 0.06759986 -0.024433391 0.047818497 0.0022243178 -0.0513265 0.107188486 0.08961543
-0.04437726 -0.008915733 0.10424445 -0.11204495 0.107697845 0.19227593 0.17370392 0.07254759
0.11399831 0.19573946 -0.076860614 0.19430695 -0.0054282127 0.15032764 0.10314296 0.028054118
-0.09619607 0.09502877 0.002847441 0.06842707 0.06354855 0.08237397 0.05870868 0.158517
0.103237 -0.071805485 0.053680103 0.106306255 0.012512504 0.00393333 0.08469411 0.024307394
-0.032037627 -0.056775153 0.1344962 0.13177046 0.25222832 0.10521455 -0.044902544 0.13078216
0.010902607 0.09806656 0.09902392 -0.031167887 -0.067286275 0.06836714 -0.07861357 -0.074409716
-0.09432016 -0.045773275 -0.09475065 -0.010852814 0.118930124 0.1491442 0.11801652 -0.03703698
0.08429897 0.0451035 0.14997904 -0.0588141 -0.11422319 -0.086209364 0.07225066 0.11372105
0.11624133 0.012085757 0.13579175 0.03271627 -0.018628743 0.067367464 -0.02298292 0.061617456
0.083445795 0.0025850597 -0.052281994 0.0032922828 -0.10882385 -0.07946698 0.04399251 -0.08050758
0.013723556 0.070347175 -0.16837244 -0.014615998 0.020320624 -0.057442002 0.00040043468 -0.08908773
0.101275206 0.053996477 0.1039529 -0.04984321 -0.014931 -0.018758288 0.05281415 -0.048951693
0.06544293 0.08801162 -0.059043627 -0.02635069 -0.09847706 -0.01901238 0.062230375 -0.112141244
-0.043341435 0.022353774 0.07136271 0.14445084 -0.013069796 -0.13155967 0.033744987 0.2769985
-0.051772702 0.03451676 0.06456642 0.058505427 -0.091928065 0.15843177 0.1352262 -0.009755934
-0.029555015 0.059640132 -0.04409483 0.01042856 0.15411116 0.114666395 0.07294329 -0.10359467
0.1427141 -0.0022656084 -0.0020359233 0.008871423 -0.0013891439 -0.07432108 0.17091839 0.06612452
0.043539993 0.089618936 0.1952942 -0.001986511 0.116943106 0.00948514 0.06438352 -0.075206466
0.11784229 0.08786593 0.10853373 -0.013970395 0.006514901 0.16148238 -0.111855924 -0.0995297
0.17017664 0.050037023 0.27455124 0.11512382 -0.015651697 0.007966677 0.18076345 -0.05116621
